weight/actor.pkl (torch_old, 243914 bytes, 12 tensors)

linear1.weight f4 [64, 4]
000000 5a a5 71 3e ad d7 f5 3d d3 02 00 3e 70 f1 63 be
       0.23598233 0.120040275 0.12501077 -0.2226007
000010 6c 8a cf be d6 80 a9 be a6 46 4c 3e 2c 9c e3 be
       -0.40535295 -0.33106107 0.19948825 -0.44455087
000020 04 95 6c be d4 1c 55 be bd ed b4 3e 28 54 e6 bd
       -0.2310372 -0.20811778 0.3533763 -0.1124652
000030 84 e2 f9 be 64 0e ba bd 9c 99 c8 3e e6 3f 01 bf
       -0.4880563 -0.09084776 0.39179695 -0.50488126
000040 38 9f d2 3e 85 63 b0 3e 76 a2 5d be c9 7a c6 be
       0.411371 0.34450927 -0.21644005 -0.38765553
000050 d6 3b 92 3e 62 8a 1e be 40 df da 3e 09 4a 67 be
       0.28561276 -0.15482476 0.4274845 -0.22586836
000060 d3 4d 87 3e cc 35 d0 be 3f 8e 91 3d 85 a1 6c be
       0.26426563 -0.40666044 0.071072094 -0.2310849
000070 48 b6 0e be 2a 6e 48 be 23 49 91 be 85 8e 94 3e
       -0.13936722 -0.19573274 -0.2837611 0.29014984
000080 72 f0 bf be 1c dd f6 3d 8a ef 00 be 9a c2 72 3e
       -0.37488133 0.12053892 -0.12591377 0.23707047
000090 70 86 57 be 88 6b e8 3e 38 a3 48 be 7f a6 e2 be
       -0.21047378 0.4539454 -0.19593513 -0.4426765
0000a0 b2 31 3c 3a 87 5b b0 3c 4d 97 c1 be 5c 07 7f 3e
       0.0007179036 0.021528019 -0.37810746 0.24905151
0000b0 53 40 d3 be b8 0f eb bd 3f b7 f6 bc 5e 31 37 3e
       -0.41260013 -0.114776075 -0.030116675 0.17889926
0000c0 f3 27 bb 3e 0a f5 2b be 54 57 93 3d d9 0f df 3e
       0.36553916 -0.16792694 0.07194391 0.43566778
0000d0 ac f5 f8 be 00 43 05 be f8 65 00 be 88 d4 11 be
       -0.48624933 -0.1301384 -0.12538898 -0.1424123
0000e0 8c 9b c2 3d ac c6 f6 3e be 47 5b 3e 3c c5 02 3f
       0.095023245 0.4819845 0.21414086 0.51082206
0000f0 ae 23 e6 3e 9c ee f2 bd a7 0a f7 bc 4f 50 e1 3e
       0.44949096 -0.118619174 -0.030156447 0.44006583
000100 b5 67 9d bd 7a 5a 10 3e 0b 08 cd 3d 8a fe b5 be
       -0.07685796 0.14097014 0.100113 -0.3554576
000110 d4 c0 fc 3e e9 8e e9 be fd d0 a6 bd 2b 6a 31 3e
       0.49365866 -0.45616844 -0.0814533 0.17325656
000120 cb cc f2 bd 29 0d 8a 3e 45 80 9c be 0b 21 1f 3e
       -0.118554674 0.26963165 -0.30566612 0.15539949
000130 27 39 05 3e c8 e9 92 3e 93 3a d1 bd ad d6 30 be
       0.13010083 0.28693986 -0.1021625 -0.17269392
000140 ae ed 81 be 52 39 8e 3e e7 a3 c1 be 23 81 af 3e
       -0.25376648 0.27778107 -0.3782036 0.3427821
000150 9e b8 b2 be cf 7c e7 3e 6d f3 cc be 46 62 be bd
       -0.34906477 0.4521241 -0.4002947 -0.09296088
000160 80 c9 19 be 54 42 32 3d e4 94 58 3e 60 e4 8b 3e
       -0.15018272 0.043520287 0.21150547 0.27322674
000170 5c 33 f5 3e 7e 7b c7 3b fc de 64 3e f7 80 ca be
       0.47890747 0.0060877195 0.22350687 -0.39551517
000180 bf 8a 20 bd 0c cb cc 3e 5e 2b e9 3e fe fa 6e be
       -0.03919482 0.39998662 0.455409 -0.23337933
000190 e6 fb 54 3e 13 b8 0f bb 56 11 49 be 3a 11 2e be
       0.20799217 -0.0021929785 -0.1963552 -0.16998759
0001a0 c8 6b 8b 3d 70 b9 b0 be 00 6c dc 3c aa 1c fb be
       0.06807667 -0.34516478 0.026906967 -0.49045306
0001b0 e8 57 8b be 89 de 42 be 96 98 d1 be 07 b8 eb 3c
       -0.27215505 -0.19030203 -0.40936726 0.028774275
0001c0 c7 f5 87 bc 1b 1d cd 3e ed 51 fa 3e 09 82 9d be
       -0.016596688 0.40061268 0.4889063 -0.3076327
0001d0 c5 6c ee bd 9a 52 e2 be ac 2f 27 3e ce d6 da 3e
       -0.1164184 -0.44203645 0.16326779 0.42742008
0001e0 48 3c 87 3d 66 a1 f4 be c8 ec dd be 98 71 81 be
       0.066032946 -0.47779387 -0.43344712 -0.25281978
0001f0 48 53 22 bd b7 ad d4 be 87 89 bb 3e 77 ff d7 3d
       -0.039630204 -0.41538784 0.36628363 0.10546773
000200 51 86 a3 bd a0 1c 99 3e 9a ab 29 3b d7 3f 53 be
       -0.07984603 0.29904652 0.0025889636 -0.20629822
000210 9f 84 c6 3e 21 93 8e 3e 3b d6 ab be 1f e1 a9 3e
       0.38773057 0.27846625 -0.33561882 0.33179566
000220 0c c1 b7 3d 14 8c 6b 3e db 16 fc bd 13 53 99 3c
       0.08972368 0.23002654 -0.12309047 0.01871637
000230 22 8d e1 be 79 99 5c 3e d5 f9 a5 3e 84 06 9a 3e
       -0.44052988 0.2154292 0.3241717 0.30083096
000240 14 4a 20 bd ed 04 e8 3e d7 fb ac be 4b b4 0c 3e
       -0.039133146 0.45316258 -0.3378589 0.13740651
000250 9c de bf be 1b 1c dd 3e 00 ec c1 3e 4f c8 39 3e
       -0.37474525 0.43185505 0.37875366 0.18142818
000260 3a 66 41 be 31 42 1b 3e 6f 71 d0 be 59 b8 c5 be
       -0.18886653 0.15161969 -0.40711543 -0.3861721
000270 e4 24 a1 be 21 ba aa 3d ce 5d fa 3c 8e a1 e5 be
       -0.31473458 0.083362825 0.030562308 -0.4484982
000280 5f aa 63 3d 48 eb 81 3e c9 8b 16 3d 25 bb ad 3e
       0.0555824 0.25374818 0.036754403 0.33931842
000290 04 f2 64 be 60 0b da be 18 80 5b 3e ca 1b 94 be
       -0.22357947 -0.42586803 0.21435583 -0.2892745
0002a0 d2 a4 a2 3e 26 b1 4f be f5 af d1 be 20 ea 95 3d
       0.31766373 -0.2028242 -0.40954557 0.073200464
0002b0 8a 55 4e be b2 8d 9b 3e ed 9b c7 3e 00 08 21 be
       -0.20149818 0.30381542 0.3898615 -0.15725708
0002c0 dc 1a 77 3d bf 0b db 3d d8 c1 97 3e a9 33 83 bd
       0.06032835 0.106956 0.2964008 -0.06406338
0002d0 3f 2c 47 be 31 76 8d be b2 84 87 3e 52 a7 b3 be
       -0.19450472 -0.27629235 0.26468426 -0.35088593
0002e0 1f 6a ee 3e 8c db b3 be 11 a7 cc 3e 79 19 1a be
       0.4656534 -0.35128438 0.39971212 -0.1504878
0002f0 d3 56 2e 3e 26 fe 54 3e a4 f8 0f 3d f0 65 78 be
       0.17025308 0.20800075 0.03514923 -0.24257636
000300 da 8c c8 3e e8 60 20 3e 0e 8e 85 be 13 7c bb 3d
       0.3916996 0.15661967 -0.26084942 0.09154525
000310 19 c9 4c 3e 83 04 da 3e 21 d3 92 3b 94 8d 96 be
       0.19998588 0.42581567 0.004480735 -0.2940489
000320 48 48 e1 bd 40 65 2b be dc 27 17 3e 20 66 fc bc
       -0.11000115 -0.16737843 0.14761299 -0.030810416
000330 ac bd 8c 3e 32 57 d3 3d 11 6a e9 3e d8 9d d4 3e
       0.27488458 0.103193656 0.45588735 0.41526675
000340 09 d4 9d be ce 3f d4 bc 86 cd 2c 3e 04 2f 02 bd
       -0.30825832 -0.02590933 0.16875276 -0.03178312
000350 e9 1a d8 be 37 b1 74 bd e5 2e f5 bd 9f fc f2 3e
       -0.4220803 -0.059739318 -0.11971835 0.4745836
000360 9a e0 b8 3d a1 96 a7 3e 32 ef ca be 1e 0c 9f be
       0.09027214 0.32732108 -0.39635617 -0.31063932
000370 32 8a f7 3e 9e fa 9b 3e ce 9b 89 be 07 cd 1b be
       0.48347622 0.30464643 -0.26876682 -0.1521493
000380 bb 12 92 3e c4 5d 24 bc f0 69 b0 3e 90 d4 63 3e
       0.28529915 -0.010032121 0.34455824 0.22249055
000390 e3 3e a9 3d b7 11 e2 bd 8d 19 52 3d 10 63 9c be
       0.08263948 -0.11038535 0.0512939 -0.3054433
0003a0 10 5a 87 3e 9a a5 fc 3e 3f 69 95 3d 72 7a b4 3d
       0.264359 0.49345094 0.07295465 0.08812417
0003b0 f1 21 a3 be 2e 74 11 3e 9d 9b ad be 55 9d cf 3c
       -0.31861833 0.14204475 -0.33907786 0.025343576
0003c0 88 fd ab be cf 18 6a 3d ce 59 32 be 22 0b d7 3e
       -0.33591866 0.057152566 -0.1741707 0.4200068
0003d0 f2 8c 0d be 33 e1 a3 bd 95 73 95 be 25 63 d6 3e
       -0.13823298 -0.08001938 -0.29189745 0.41872516
0003e0 4c 09 ba bd dc 67 4f 3e 53 eb 8b be 0d cf 81 3e
       -0.090838045 0.20254463 -0.27327976 0.2535328
0003f0 c8 c2 e9 be c6 5a 85 be a6 51 f0 bd 71 0b af 3e
       -0.4565642 -0.26045817 -0.11734323 0.34188417

linear1.bias f4 [64]
000000 7f 37 80 be ea 13 de 3e ed d8 94 3e 84 30 9c 3e
       -0.2504234 0.43374568 0.2907175 0.30505764
000010 b1 a5 0b 3e 08 86 f3 bd 6a 4b 7d bd de 2b b5 3e
       0.13637425 -0.11890799 -0.0618395 0.3538503
000020 ed be 8a 3e d8 1a 9e 3e b6 bc af be 33 5f f0 3e
       0.2709879 0.30879855 -0.34323663 0.4694763
000030 71 f2 6e 3e 80 d5 11 bc c4 91 d8 bc 0c 6c 94 be
       0.23334672 -0.008901 -0.026436694 -0.28988683
000040 96 34 98 3e 18 61 97 be 31 aa c0 3e a6 46 5e be
       0.2972762 -0.29566264 0.37629846 -0.21706638
000050 f6 d6 8e 3e 60 fe 5d be bc 32 8e 3e 78 52 3a be
       0.27898377 -0.21679068 0.27773082 -0.18195522
000060 02 ab 0a 3b 29 ff e5 be f0 e0 e7 bd ad 71 2e 3e
       0.0021159058 -0.44921234 -0.113222 0.17035551
000070 63 de 2f be fe a0 ae 3e 50 ef a6 bd 23 a8 16 bd
       -0.17174678 0.34107202 -0.08151114 -0.03678144
000080 a0 2e 35 be 2b b8 e7 3e e6 93 a1 bc 33 e3 20 be
       -0.17693567 0.45257697 -0.019723844 -0.1571167
000090 5d 45 f3 3d 5b 62 ca be e5 99 02 3f 99 15 a6 3e
       0.11878464 -0.39528164 0.51016074 0.32438353
0000a0 76 88 97 3e 32 6f 87 be 6f c5 bd bd ca 16 82 bd
       0.295963 -0.26452023 -0.09266173 -0.06352003
0000b0 21 46 c9 bd 84 7b 21 3e fe da b0 3e 21 35 82 be
       -0.09827829 0.15769774 0.34542078 -0.2543116
0000c0 4c 6e 60 3e 5a 2e 18 3e 5e bd 97 be 90 c9 da 3e
       0.21917075 0.14861432 -0.29636663 0.42731905
0000d0 ee eb a8 3d 85 e3 00 3f 42 c1 ab be fb 02 94 be
       0.08248125 0.5034717 -0.33545882 -0.28908524
0000e0 5a 6d f4 3e 8b 25 28 bb 03 36 f3 3e 08 48 bf 3e
       0.4773968 -0.0025657143 0.47502145 0.37359643
0000f0 32 44 36 3d 6f 46 b1 be 6f 92 17 3e fb 15 f4 3d
       0.04449863 -0.3462405 0.14801954 0.11918255

linear2.weight f4 [128, 64]
000000 79 91 05 bc 4d fe ec bd 4b 67 c1 bb b5 bc c3 3d
       -0.008152359 -0.115719415 -0.005902206 0.095574774
000010 b7 81 56 3d bd 98 b8 3d e4 6b 87 3d d8 53 20 3d
       0.0523698 0.090135075 0.066123754 0.03914246
000020 81 56 b2 3c e0 d7 aa bd 21 11 e3 3c 14 f9 8d bd
       0.021769764 -0.08341956 0.027718129 -0.069322735
000030 a1 ad 12 3c 74 13 1d bd cb fb 9b 3c 6f 3d e1 bd
       0.008952529 -0.03834863 0.019040963 -0.10998046
000040 57 4f d5 bd 9e 51 e8 3d 1a 66 b8 3d c7 ba 3d 3d
       -0.104155235 0.11343692 0.09003849 0.046320703
000050 de bf d1 3d 9a 37 89 bd 65 72 a8 bc 9a fb 38 3d
       0.10241674 -0.06700058 -0.02056236 0.04516182
000060 8d 08 e5 3c 53 6a b1 bd 90 aa 98 bd 12 47 4e 3d
       0.027958179 -0.08662858 -0.07454407 0.050360747
000070 3d d1 21 3c 40 05 fd bd 7a 7b da bd d7 c8 01 be
       0.009876546 -0.12354517 -0.106680825 -0.1267427
000080 75 6f 10 be 74 93 ef 3b 76 f0 be bc 0d 6f a8 3a
       -0.14105017 0.007311279 -0.02330802 0.0012850479
000090 9f 6c 8a bc 14 62 60 3d ee 04 03 bd 80 c6 f2 bd
       -0.016897498 0.054781035 -0.031987123 -0.11854267
0000a0 fd 9e db 3c c6 3d f4 3d 96 c9 d5 3d 38 a7 b0 bc
       0.02680921 0.11925845 0.1043884 -0.021564111
0000b0 9d 1c d6 bb 31 1f 35 3c 48 02 67 3d c9 ec 23 3e
       -0.0065341727 0.0110548 0.05639866 0.16008295
0000c0 ad 6f 40 3d 0f 19 a5 3d 38 d8 ce 3d 53 d9 7f 3d
       0.046981502 0.0806142 0.10099834 0.062463116
0000d0 90 24 e6 bd a6 12 ed 3c 80 06 18 3e 32 99 d7 bc
       -0.112374425 0.028939556 0.1484623 -0.026318166
0000e0 d4 73 e8 3d 3d f1 d6 bd 75 c5 e9 3d fb 98 5d 3d
       0.113502175 -0.10495231 0.11414615 0.05410097
0000f0 2a 09 82 bd bc 2a 3c bd dd 51 ea 3c 9a 35 68 3d
       -0.06349404 -0.045939192 0.028603489 0.056691743
000100 61 aa a7 3d d8 41 8f bc 0a c0 78 3d fb 31 d3 bd
       0.08186794 -0.017487451 0.060730018 -0.103122674
000110 3a 5c 88 bc 79 5f f5 3d 02 01 a8 3a f6 11 54 bd
       -0.01664554 0.119811006 0.0012817683 -0.05177494
000120 13 bb eb bd 43 f3 f0 bd 8e 3a b2 3d 31 5e d6 3d
       -0.11510291 -0.117651485 0.08702575 0.10467184
000130 19 a0 ce bd 28 a7 68 3d 5f 0f cc bd a0 2d 25 bd
       -0.1008913 0.056800038 -0.09963869 -0.040326715
000140 88 f2 c1 3d a8 5d 90 3d a2 fe dd 3d 02 6d c4 3d
       0.09470087 0.070491135 0.10839583 0.09591104
000150 d6 b7 9b 3d 60 a9 d3 bd 65 e3 2a 3d e0 fa 05 3d
       0.07603423 -0.1033504 0.041720767 0.032709956
000160 85 0d 77 bc d2 05 f5 bd 34 a7 ff 3d e4 58 78 bc
       -0.015078907 -0.11964001 0.12483063 -0.015157912
000170 7c cc d4 3d 1a 81 d6 bd d0 01 16 bd de 1a 58 3d
       0.10390565 -0.10473843 -0.036622822 0.052759998
000180 f6 72 d9 3c 9a c5 ae bd e4 89 fc bc e6 ae 85 bd
       0.026544075 -0.08533783 -0.03082747 -0.065275
000190 04 7e f4 3c 77 3e aa bc 76 b5 80 3d 77 bd ec 3b
       0.029845245 -0.020781739 0.06284611 0.0072247344
0001a0 1f f0 eb 3d 10 e8 28 bc be 66 f9 bd bf 1d b3 bc
       0.11520409 -0.010309234 -0.121778 -0.02186477
0001b0 41 90 8d bd 43 d6 16 bd cc 89 0a bd c5 fb c2 bd
       -0.0691228 -0.03682543 -0.03382282 -0.095206775
0001c0 a6 8a 29 3d ad 66 ce bd 2c 44 55 bd 33 6d d5 3d
       0.04139199 -0.100781776 -0.052066967 0.10421219
0001d0 6e 99 81 3d d8 69 64 3d 54 7a 1f 3d 71 ce 98 bd
       0.063280925 0.055765003 0.03893502 -0.074612506
0001e0 d0 0d fa bd fe 5d c9 bd 63 00 bc bc 04 6b 14 bd
       -0.12209666 -0.09832381 -0.022949403 -0.03623487
0001f0 56 83 dc bd 10 03 b7 bd 9d b5 62 3c b5 b3 3d bd
       -0.10767238 -0.08936131 0.013837245 -0.04631396
000200 88 89 db bc 0c 4c 15 3d e8 cf eb bd 54 c5 87 3d
       -0.026798978 0.036449477 -0.11514264 0.06629434
000210 a0 8a ab bd 0c 29 39 bd 2e 53 af bd 70 19 34 3d
       -0.0837605 -0.04520516 -0.08560787 0.04396957
000220 28 4a d0 3d 98 e4 5e 3d 2e 8b eb bd 00 da 78 3d
       0.10170394 0.054417223 -0.11501156 0.060754776
000230 16 ea af bd 44 dd be 3d 80 d1 a9 3b e6 0b 89 bd
       -0.0858957 0.09319547 0.005182445 -0.066917226
000240 38 0b 8f 3d 7a d0 8d bd c8 6b 8d bd cc 77 f7 3d
       0.06984562 -0.069245294 -0.06905323 0.12083396
000250 ca ab ea bd 06 ed 81 3d 90 e1 61 bd fe 4f a2 bd
       -0.114585474 0.06344037 -0.055146754 -0.079254135
000260 8c 7a f9 3d f0 8f 53 bd c0 3f d9 3d e0 13 be bc
       0.12181577 -0.05165094 0.106078625 -0.023202837
000270 00 00 57 36 78 12 60 3d 5c d0 9d bd 6a da 97 3d
       3.2037497e-06 0.054705113 -0.07705757 0.07414706
000280 4a 9f b3 3d ae 8a d8 3d 28 21 e7 bc 22 83 bf bd
       0.08770616 0.10573326 -0.028214052 -0.093511835
000290 40 5c 08 3d b0 b1 3f 3c be 94 cc 3d bc 38 28 3d
       0.0332911 0.011700079 0.09989308 0.04106973
0002a0 d0 61 23 3c 70 d2 d5 3c 06 cf f5 bd da 6c 83 bd
       0.009972051 0.026101321 -0.12002377 -0.06417246
0002b0 98 c1 a8 bc b0 db 8f 3c f0 db 00 bd 38 73 2a 3d
       -0.020600125 0.01756081 -0.03145975 0.041613787
0002c0 98 72 66 3d 6e 4d e2 bd 00 6e d2 39 50 97 73 3c
       0.05626163 -0.11049925 0.00040136278 0.014867619
0002d0 f4 1a 70 3d 8e 2b f8 3d c2 40 d9 3d 34 72 9a bd
       0.058619455 0.121176824 0.10608055 -0.07541314
0002e0 ba ae ac 3d 66 48 ff 3d a0 1d 87 bd 50 61 61 bd
       0.08431764 0.12464981 -0.065974474 -0.055024445
0002f0 d4 b7 a2 bd 1a 8d c0 3d 66 17 a1 bd 1c 25 c9 bd
       -0.07945219 0.09401913 -0.07865791 -0.09821531
000300 6c b3 ca 3d 9c 16 77 3d ca 19 92 bd a0 b9 40 3c
       0.09897503 0.060324296 -0.07133825 0.011763006
000310 e2 d2 d4 bd 06 f6 9d 3d 58 6d be bc d8 8a 7b bd
       -0.10391785 0.07712941 -0.023245499 -0.06141171
000320 c0 37 a3 bc 58 15 32 bd b8 b0 8a 3c 90 f8 7e 3c
       -0.019924045 -0.043477386 0.01692997 0.015562192
000330 84 6a 8e 3d b0 62 ff bd 30 85 1d 3c 38 a4 7f bd
       0.0695391 -0.12469995 0.009614274 -0.06241247
000340 80 37 85 3a cc 56 42 bd e4 f3 7b bd 1e 82 eb 3d
       0.0010163635 -0.047446057 -0.06151189 0.11499427
000350 00 c5 a6 bd d0 90 6a 3d 20 f3 f0 bd 40 9a 45 3c
       -0.081430435 0.05726701 -0.117651224 0.012060702
000360 7e d7 fb 3d 00 fe 68 3c c4 99 75 bd d8 0b c9 bc
       0.12296961 0.014220715 -0.059961095 -0.02454178
000370 dc 3f db bd 58 cc fa 3c c6 84 d3 3d 26 d3 b8 bd
       -0.107055396 0.030615017 0.10328059 -0.09024648
000380 6a 23 f0 3d 30 54 4c 3c 26 b0 ab bd a0 b9 1a bd
       0.11725505 0.012471244 -0.08383207 -0.037774682
000390 4c e7 6d bd e4 52 0c bd ec 92 bb bd ba fd c3 3d
       -0.05808191 -0.03425874 -0.091588825 0.09569879
0003a0 40 a8 bd bc 16 bc de 3d 40 4b bd bc e0 5c 85 3c
       -0.023151517 0.10875718 -0.023107171 0.016279638
0003b0 02 c3 98 3d ce 7f a8 bd e0 58 0f bc 0e 68 a8 bd
       0.0745907 -0.08227502 -0.008749217 -0.08222972
0003c0 88 d1 e3 bd b2 c4 be 3d 08 2c a2 3d 9e f8 b0 3d
       -0.11123949 0.093148604 0.079185545 0.0864117
0003d0 30 ec d8 3c 40 bb 36 3b 78 e4 05 3d dc f1 15 3d
       0.02647981 0.0027882606 0.032688588 0.03660761
0003e0 1c 7a bd bd 06 be c5 3d fc ae b9 bd f6 27 d4 3d
       -0.09251806 0.09655385 -0.09066579 0.103591844
0003f0 20 dc ef bd 80 44 f3 3c c0 02 96 bc b8 f1 a1 3c
       -0.117119074 0.02969575 -0.018311858 0.01976858

linear2.bias f4 [128]
000000 87 71 3b bd e9 ad 52 bc 48 f8 92 bd 18 f5 95 bd
       -0.045762565 -0.012858846 -0.07176262 -0.073221385
000010 c9 90 d1 3d a8 8a 78 3d 97 7b 24 bc ca 8e 92 ba
       0.10232694 0.060679108 -0.010039232 -0.001118147
000020 34 06 92 bd 52 35 92 bd 84 d9 a4 bd 6b cf d5 3d
       -0.071300894 -0.07139076 -0.080493 0.104399525
000030 0e 7d 4b 3d 58 65 c8 3d 7c 9d 6c 3d b6 fb e4 bd
       0.04967981 0.09784955 0.057767376 -0.111808226
000040 8d 7d cf 3c 80 0a 12 bb 66 1a f1 3d 2f 15 fc bd
       0.025328422 -0.002228409 0.11772613 -0.12308728
000050 08 37 09 be 95 c8 5f 3d 5c d9 6e bd f9 12 fc 3b
       -0.13399899 0.05463465 -0.05831276 0.0076926914
000060 6c 7f 3e 3c 75 e6 37 3d ce 81 d8 bc bf 54 ed 3c
       0.011627059 0.044897515 -0.026429083 0.028971074
000070 49 e2 c1 3d ba d1 8c bd 94 2e 04 3e 9b cc 6c 3d
       0.094669886 -0.0687594 0.12908393 0.057812314
000080 40 f2 2d 3c 9d ea d0 3d a6 d1 0a bc b1 7f 25 3d
       0.010616839 0.10200999 -0.008472836 0.04040498
000090 fb 9e fd bd 58 26 0d bd 70 15 72 3d 09 b2 96 bd
       -0.12383839 -0.034460396 0.059102476 -0.07358176
0000a0 cb 8a de bd ad 34 a9 3d 2c 6e 85 3c c6 bd b7 3d
       -0.108663164 0.08262 0.016287886 0.08971743
0000b0 d7 94 13 3c da 04 8e 3c 54 e4 6f 3d 78 c5 f0 bd
       0.009007654 0.017336298 0.05856736 -0.11756414
0000c0 b8 62 b5 3d 85 f8 84 3d 36 63 8f bd d4 e5 e6 3d
       0.0885672 0.06492714 -0.07001345 0.11274305
0000d0 00 cd b8 3a c7 7b eb 3c 27 6b 04 3c c4 5c 45 bd
       0.0014099181 0.028745545 0.008082188 -0.04818417
0000e0 28 be 3b bd 74 bc 18 bd 0e cc 42 3d ac 9f 96 bd
       -0.045835644 -0.037289098 0.047557883 -0.07354674
0000f0 ec 92 57 3d 08 b2 36 bd 83 8a b1 bd 68 0b d1 3d
       0.05263035 -0.044603378 -0.08668997 0.10207254
000100 fc 99 15 3a bf ba df 3d 40 ef 74 bb cc 65 1a 3d
       0.00057068444 0.10924291 -0.003737405 0.037694737
000110 28 4b 9e 3d 00 76 9f 3d ec 85 39 3d 78 34 ff bd
       0.07729179 0.077861786 0.045293733 -0.124611795
000120 4c cf 51 bd 3c 24 b3 bd 41 98 bf 3d 14 f9 f2 bd
       -0.051223084 -0.087471455 0.09355212 -0.11863914
000130 c5 cf 1a bd 00 41 0b bc 84 4f 84 bc 7e 39 f1 bc
       -0.0377958 -0.008499384 -0.016151197 -0.02944636
000140 32 64 1d 3a 2f 68 68 3d 62 f7 99 bd 3b de eb 3d
       0.0006004005 0.056739982 -0.07517888 0.115169965
000150 0e e5 37 bd 18 da ae bd f8 1b 5b 3d 96 12 03 3e
       -0.044896178 -0.08537692 0.05349347 0.12800059
000160 b6 47 bd 3d 30 4d b4 bd 79 03 fc bd f6 d5 6e bd
       0.092421934 -0.08803785 -0.1230535 -0.058309518
000170 f2 8c a8 bd 22 3d 10 bd 55 7a b8 3c 36 82 b8 3d
       -0.08230008 -0.03521455 0.02251927 0.09009211
000180 5c ba e7 bd e2 90 82 bc 70 55 b6 bd 71 61 34 3d
       -0.11314842 -0.015938226 -0.08903015 0.04403824
000190 65 3d 71 bd 8d 1c b7 3d 30 6d a8 bd 6a c7 83 bd
       -0.05889644 0.089409925 -0.08223951 -0.064345196
0001a0 70 25 49 bd 3e b9 96 3d 94 7b a7 3c 8d cb 5a 3c
       -0.04910797 0.07359551 0.020444669 0.013354194
0001b0 b6 bc 53 bd 24 da 91 3d bc 32 f3 3d 50 65 28 3d
       -0.05169364 0.07121685 0.11874911 0.041112244
0001c0 e5 67 f0 3d 73 61 18 3c 17 81 e9 3c 1a c9 f1 bd
       0.11738566 0.009300577 0.028503938 -0.11805935
0001d0 82 38 a4 bd ac 19 48 bc c0 4d 82 bc 8a 51 35 3c
       -0.080185905 -0.012213152 -0.015906215 0.011066804
0001e0 88 cc dd 3c 43 41 de bd c8 61 ce 3d 2e f3 d6 3d
       0.027075067 -0.108522914 0.10077244 0.104956016
0001f0 ef 57 f7 bd ce 8c dc 3c 7c d5 f8 bd bd f0 b8 bc
       -0.12077319 0.02692261 -0.12150094 -0.02257573

LSTM_layer_3.weight_ih_l0 f4 [256, 128]
000000 69 97 e7 3d e4 c3 8a 3d 54 a5 e4 3d 40 e6 ab 3b
       0.11308176 0.067756444 0.11164346 0.005245954
000010 16 21 23 3d 74 7a 37 bd 4e 6a a6 3d 07 08 85 3c
       0.039826475 -0.044794515 0.08125745 0.01623918
000020 98 ef 30 3d 5a 9a ad 3d 10 33 a5 bd 25 9e b3 3d
       0.043197244 0.08476706 -0.0806638 0.08770398
000030 ac 75 6f bb 10 1c ba 3d b0 68 05 bc 25 2a 0b bd
       -0.0036538644 0.09087384 -0.008142635 -0.03397574
000040 84 e1 88 3d 58 41 7e 3d 3a 52 42 3d 78 ca 8b 3d
       0.06683639 0.062074035 0.0474417 0.06825727
000050 23 dc e0 3d ad cd c9 bc 68 ed e0 bd 10 d1 7b bd
       0.10979488 -0.024634207 -0.10982782 -0.061478674
000060 0d a6 fa bc a1 4d f1 bd 60 00 39 bd 9c 90 95 3d
       -0.030596757 -0.11782385 -0.045166373 0.07302973
000070 dd 7d e4 3d 0e b6 b5 3d 7d 71 c2 bc 6b a6 20 3d
       0.11156819 0.08872615 -0.023735756 0.03922121
000080 90 51 97 3d 6f 1c 60 3d a0 61 3c 3a 93 99 80 3b
       0.07388604 0.054714616 0.0007186178 0.0039245575
000090 8e e2 cd bd 50 a7 0d 3c 02 31 80 3d f4 a2 d3 bd
       -0.100529775 0.008645847 0.062593475 -0.10333815
0000a0 fc e8 05 bc 2c 8f 40 3d 40 da 10 3c e6 35 d4 3d
       -0.008173224 0.04701154 0.008841097 0.10361843
0000b0 d7 a5 bd bd 53 64 62 3d e4 44 17 bd fd 0b e2 bc
       -0.09260147 0.055271458 -0.036930934 -0.027593607
0000c0 3e 11 f0 3d 48 46 a9 3c c0 50 13 bb 24 4c 51 bd
       0.11722039 0.020663396 -0.002247855 -0.051098004
0000d0 98 2a c8 3c c4 d9 32 3b 53 40 d2 bd ed bd 08 bd
       0.024434373 0.0027290443 -0.10266175 -0.033384252
0000e0 05 ec 79 3d 10 ee 56 3c 41 cf c1 bc 3a 32 05 bd
       0.0610161 0.013118282 -0.023658397 -0.032518603
0000f0 43 cb d6 3d e8 4f eb 3d 60 d8 17 bd 0a 39 91 3d
       0.10487988 0.1148985 -0.037071586 0.070909575
000100 1a 4a f9 bb a7 80 85 bc a2 e9 e6 bd 69 7a d5 3d
       -0.0076077105 -0.016296698 -0.11275031 0.104237385
000110 61 63 5e 3d e7 03 8e 3d 44 a2 4d bd e4 49 d1 3d
       0.054293994 0.06934338 -0.050203577 0.10219172
000120 3c 5d 6d 3c ec 6a ef bd 78 31 f6 3d 38 d0 31 3d
       0.014487561 -0.116903156 0.12021154 0.043411463
000130 24 5a f4 bd 7a dd 94 bd 54 02 d8 3d 7f 81 ab bd
       -0.119312555 -0.07268806 0.10547319 -0.08374309
000140 0d b6 78 bc 95 a8 e7 3d 18 06 c2 3c 87 87 1f 3d
       -0.015180123 0.11311451 0.023684546 0.03894761
000150 7e 54 70 bd 18 f8 ae 3c ce c0 e7 bd 53 f8 95 bd
       -0.058674328 0.021358535 -0.113160715 -0.07322755
000160 aa 46 c0 bd a6 68 9f 3d 2d f0 1d 3d b9 92 ef bd
       -0.09388478 0.07783632 0.038559128 -0.11697907
000170 14 76 6d bd 95 cb d5 bd fd df 9a bd 04 23 2c bd
       -0.057973936 -0.10439221 -0.075622536 -0.04202558
000180 85 71 ed bd 95 45 5c 3d b0 42 ce bd b3 28 97 3d
       -0.11593918 0.053777296 -0.100713134 0.0738081
000190 bc 14 c8 3d 64 ce 88 3d 10 72 3c 3d 57 5b d6 3c
       0.0976958 0.06679991 0.046007216 0.026166601
0001a0 aa 3f 88 3d d5 4d ca bd 10 3c 21 bd 06 33 cc bd
       0.06652768 -0.098781265 -0.03936392 -0.099706694
0001b0 0d aa 8a 3d 88 83 62 bd 78 02 c7 bc 12 e1 63 3d
       0.06770716 -0.05530122 -0.02429317 0.055634566
0001c0 79 01 d9 bc ae 05 0a bc c9 40 c2 3d 29 4a 13 3d
       -0.02648996 -0.008424206 0.09485013 0.035959397
0001d0 00 e3 2a ba 72 4a 95 bc 80 fe df bc 40 a9 77 bd
       -0.0006518811 -0.018223975 -0.027343035 -0.060464144
0001e0 9c 26 8d 3d 62 06 60 3c a8 d0 da 3c 37 77 ed 3c
       0.0689213 0.013673397 0.026710823 0.02898751
0001f0 79 05 84 3d 2d c9 12 3e a7 66 65 3d 01 0c c2 bd
       0.06446356 0.14334555 0.0560061 -0.09474946
000200 ae 0b e6 3c 14 7e 24 bc a0 72 81 bb f0 36 1b bd
       0.028081741 -0.010039825 -0.003950432 -0.03789419
000210 ab 04 d2 3c 7c ca 4b 3d ad 3f b1 3d f8 a1 e9 3d
       0.025636991 0.04975365 0.08654723 0.11407846
000220 44 a1 b6 bd 12 51 9c 3d c4 1a 97 bd a2 0b 7a bd
       -0.08917478 0.076326504 -0.07378152 -0.06104625
000230 8d f6 c2 3d 00 00 b1 bc 80 57 1a 3b 18 3e 8a 3d
       0.09519682 -0.021606445 0.002355069 0.06750125
000240 3d b6 0f 3d 20 fd e5 3d 8c 2e 11 3d 64 cc ff 3c
       0.035085905 0.112299204 0.03544478 0.03122539
000250 15 0e 19 3d e7 8a bd 3d 9a fb cd bd dd fe c6 bd
       0.037366945 0.09255009 -0.10057755 -0.0971658
000260 72 13 14 3e 5f b6 36 bc 35 e6 97 bc dd 8c 27 bd
       0.14460543 -0.011151879 -0.018542388 -0.040905822
000270 1b 59 db 3d f8 79 00 bd 11 cd 91 3c f3 1b 45 bd
       0.10710355 -0.03136632 0.017797979 -0.048122358
000280 78 0f c6 3d a4 88 1f 3d f8 0b ad 3d e4 47 14 bd
       0.09670919 0.03894867 0.084495485 -0.036201373
000290 4f 39 ba bd 3a 7e bc 3d 18 e7 5b 3d 98 61 5f 3d
       -0.09092962 0.09203763 0.053687185 0.054536432
0002a0 f7 e6 e9 3d 2e 22 8a bd 47 74 b6 3c e9 93 3d bd
       0.11421006 -0.067448005 0.022272242 -0.046283636
0002b0 ac 55 04 3d a0 57 9f 3d 88 ad ec 3d ab e4 2a 3d
       0.032308266 0.07780385 0.11556536 0.04172198
0002c0 9e 9b a7 3d 50 45 e9 bd 5c 59 21 bd a6 ac 9c bd
       0.081839785 -0.113901734 -0.03939186 -0.076501176
0002d0 bc c3 cb bd 9e b8 4b 3c 13 5e 06 3e 71 e2 b3 3d
       -0.09949443 0.012434153 0.13121824 0.08783425
0002e0 59 29 1e 3e 2e 08 d0 bd a4 d8 e4 bd 83 d7 ed 3d
       0.1544546 -0.1015781 -0.111741334 0.11613371
0002f0 39 7d f6 3d ce f5 f4 bd ec b4 e8 3c de 08 fe 3d
       0.12035603 -0.11960946 0.028406583 0.12404035
000300 fe e9 ed bc 5b 72 be 3d 98 cf c7 bd 2f 92 96 bd
       -0.02904224 0.09299155 -0.09756392 -0.07352101
000310 7e ec a6 bd 0d 26 3b 3e 03 a9 26 3e 00 28 0c bd
       -0.08150576 0.18276234 0.1627541 -0.034217834
000320 77 fe a1 3d b0 54 e7 bc 3e b6 11 3e 6c 9c d0 3d
       0.079098634 -0.028238624 0.14229676 0.10186085
000330 6c dc c0 bd 50 a5 05 3d 22 39 13 3e 76 83 3c bb
       -0.09417042 0.032628357 0.14377263 -0.002876488
000340 e9 56 43 bc ac 0a 96 bc 0c f5 16 3d 11 e7 95 3d
       -0.011922576 -0.018315636 0.03685479 0.07319463
000350 4b fd 3a 3d 58 7b 85 3c ee f9 c2 3d ac c3 dd bc
       0.045651715 0.016294166 0.095203266 -0.027070843
000360 3a b1 98 bd 28 b0 df bc 61 31 b0 3d 55 c4 99 bd
       -0.07455678 -0.027305678 0.08603168 -0.075081505
000370 3c 0c 1e bd 39 8f 0f 3e e7 20 a2 bd ba 80 9c 3d
       -0.038585886 0.14019479 -0.07916432 0.0764174
000380 cb 36 8a 3d dd e6 fe 3d ea d2 b4 3d 62 b8 a4 bd
       0.06748732 0.124463774 0.08829291 -0.08042981
000390 7e dc 03 3d 57 87 0a bd a4 81 7b bd 13 20 ca bc
       0.0321927 -0.033820476 -0.06140293 -0.024673497
0003a0 f0 3c 5a bd af a3 22 3c af b7 42 bd 63 14 0c 3e
       -0.05328077 0.0099267205 -0.047538456 0.13679652
0003b0 67 42 1a 3e 7a 58 a5 bd 3c 82 26 bd 4f 50 2c 3d
       0.15064393 -0.08073516 -0.040651545 0.042068776
0003c0 0d e1 95 bd d2 04 db 3c 24 fe 31 3e 41 05 87 3d
       -0.07318316 0.026735697 0.17382103 0.06592799
0003d0 e0 97 04 bd 8d 4e a1 3d cc cc ac bd 4d 1d 1c 3e
       -0.0323714 0.078763105 -0.084374994 0.15245552
0003e0 f4 78 67 bd 6d 33 8e bd e1 bf 2c 3e 70 59 4b 3d
       -0.056511834 -0.069434024 0.16870071 0.04964584
0003f0 c9 d3 10 be a4 0d 93 bd 6c 73 37 bc a5 54 02 3d
       -0.1414329 -0.07180336 -0.011196952 0.031819005

LSTM_layer_3.weight_hh_l0 f4 [256, 64]
000000 d6 83 dc bd 9a cf a6 3d da 41 f7 bd 26 f3 95 bd
       -0.10767333 0.081450656 -0.12073107 -0.073217675
000010 10 f9 e0 bd 32 0d ec bd d0 fc e0 3c 46 0c f7 3d
       -0.10985005 -0.11525954 0.0274643 0.12062888
000020 68 de 53 bd 00 d4 65 3a c0 db 19 3b 30 84 10 3d
       -0.051725775 0.0008767247 0.0023476928 0.035282314
000030 d4 43 89 bd 00 e4 fd 39 30 31 5a bd 18 ef b2 3d
       -0.0670239 0.00048425794 -0.053269565 0.0873701
000040 70 3b b7 3d d8 d5 16 3d b0 b3 48 3d 00 6e 40 bd
       0.08946884 0.03682503 0.04899949 -0.046979904
000050 e0 2d cd 3d 48 3a e1 bc 1e b3 e2 3d 00 b9 f6 bc
       0.100185156 -0.027493611 0.1106932 -0.030117512
000060 ea 9b cb bd 00 3d e8 3a 96 ad 88 3d 0a 7e e1 3d
       -0.099418476 0.0017718375 0.06673734 0.11010368
000070 e8 66 fe 3d 6a a8 cb 3d 68 cb 30 bd 00 3d 31 3b
       0.124219716 0.09944232 -0.043162733 0.0027044415
000080 c0 be 50 3c f8 1c 1c bd 00 81 f2 3b b0 d2 6f bc
       0.012740791 -0.038113564 0.007400632 -0.014637634
000090 3a 0b ad 3d 54 00 29 3d f4 f3 61 3d b8 06 e7 bd
       0.08449407 0.04126008 0.055164292 -0.112805784
0000a0 44 d7 d1 3d a8 f1 51 bd b8 4b df 3d 90 51 b3 3c
       0.10246137 -0.051255852 0.10903114 0.021889478
0000b0 bc a8 bb bd 74 ee 4e bd 94 f0 63 bd 10 f5 79 3d
       -0.09163043 -0.050520375 -0.055649355 0.061024725
0000c0 c0 60 8c 3c cc 04 18 bd 90 12 d8 bd c0 69 7c bd
       0.017135978 -0.03711395 -0.105504155 -0.06162429
0000d0 f0 e7 aa bd ec 09 1c bd 1a be fc 3d 64 d0 44 bd
       -0.0834502 -0.0380954 0.123409465 -0.0480503
0000e0 2e 33 82 3d 78 75 81 3c 22 15 a5 3d 80 67 72 bc
       0.06357418 0.015803084 0.080606714 -0.014795184
0000f0 dc cb 55 3d 34 99 4a bd 70 5a 19 3d 90 4b 76 bd
       0.05219637 -0.049462512 0.037439764 -0.060130656
000100 80 27 68 3c c8 cd 9f 3d 4c 4d d5 3d a6 9c b6 bd
       0.014169574 0.078029215 0.10415134 -0.08916597
000110 90 37 03 3d 2c 7e d4 bd 5a 67 89 3d b2 c4 e5 bd
       0.03203541 -0.10375628 0.06709166 -0.11219157
000120 42 31 bb 3d 78 f4 1c 3d 04 0d 08 3d c2 9a 95 bd
       0.091402546 0.03831908 0.033215538 -0.07304908
000130 a4 1e c2 3d d0 da 23 bd 80 22 8a 3c 20 4c 95 bb
       0.094785005 -0.040003598 0.016862154 -0.004556194
000140 68 7c 4c 3d 00 fb cd 3b 40 c9 bb bb b0 9a 10 3c
       0.04992333 0.006286025 -0.005730778 0.008825943
000150 28 5f 4f bd 8a 9a a3 bd 9e ef c3 bd 2c 61 1e bd
       -0.050627857 -0.0798846 -0.09567188 -0.03866689
000160 10 7a 22 bc 5c bb c5 3d 00 b5 a8 3d 74 af b0 bd
       -0.009916797 0.096548766 0.08237648 -0.08627215
000170 58 88 0e 3d c8 ba 6c bd 0e 69 fd bd 12 a8 84 3d
       0.034797996 -0.057795316 -0.12373553 0.06477369
000180 30 a6 3f 3c d8 a0 ed 3c aa 6b 8e 3d 7a c2 9e 3d
       0.011697337 0.02900736 0.06954129 0.07751937
000190 50 a2 2b 3c a0 3a 07 3c 9c 38 0b 3d 36 11 bf 3d
       0.01047571 0.008253723 0.033989534 0.093294546
0001a0 f0 54 4f bc 00 12 c9 bc 74 05 36 bd 7e 70 c4 3d
       -0.012654528 -0.024544716 -0.044438794 0.09591769
0001b0 60 c5 86 3d 80 64 67 3c b8 e9 74 3d 88 1e db bd
       0.06580615 0.014123082 0.059793204 -0.10699183
0001c0 e8 86 de bd 9e 5e bd 3d 70 2f 77 bc f0 d9 f9 3d
       -0.10865575 0.092465624 -0.015086994 0.121997714
0001d0 60 d5 3d bc 8e 0e aa bd 00 af 89 3d 8a cb cc 3d
       -0.011586517 -0.08303557 0.06722832 0.099997595
0001e0 e8 8c 60 bd c8 4e 86 bc 84 e5 70 bd 38 ce 8b 3c
       -0.05482188 -0.016394988 -0.058812633 0.017066106
0001f0 14 6c f7 bd 88 61 8e 3d 8a 19 8b 3d 48 83 05 3d
       -0.12081161 0.06952196 0.067919806 0.032595903
000200 38 3b 52 bd d0 37 2d bd e0 e7 5b 3d 80 4e 51 3d
       -0.051326007 -0.042289555 0.05368793 0.051100254
000210 60 5f 69 3d cc 4c ca bd 7e d5 ec bd ea a1 8a bd
       0.056975722 -0.09877929 -0.11564158 -0.06769164
000220 a6 30 ad 3d 10 ce 50 3c 00 6d 60 bb 94 6f 4c 3d
       0.084565446 0.012744442 -0.0034244657 0.049911097
000230 30 53 6c bd c8 9a 8e 3c 00 bd c6 3c 68 4b dd 3c
       -0.05769652 0.01740779 0.024260044 0.027013496
000240 80 68 1c 3b 42 b6 8a bd 50 df ef 3d 00 e8 b8 b9
       0.0023865998 -0.06773044 0.11712515 -0.00035268068
000250 8c c2 db bd 80 66 e9 3c 16 83 fa 3d 54 62 f1 3d
       -0.10730466 0.028491259 0.12232034 0.11786333
000260 00 e0 6f 38 84 59 e6 bd 46 4d e5 3d 88 8a ef 3c
       5.7190657e-05 -0.112475425 0.11196379 0.029240862
000270 d0 3f f1 bc 48 1b 68 3d 00 df d9 bc e0 12 51 3d
       -0.029449373 0.056666642 -0.026595592 0.05104339
000280 f4 7a 0e 3d a4 a1 30 bd f0 f5 ad 3c f2 04 83 bd
       0.034785226 -0.043122903 0.021235436 -0.063974276
000290 4c 02 97 3d 16 0e fe bd d0 c5 fa 3c e8 bf 7c 3d
       0.07373485 -0.124050304 0.030611902 0.061706454
0002a0 ec 36 ad bd 5a 84 92 bd 00 88 90 b9 e0 ec 4c 3c
       -0.08457741 -0.0715415 -0.00027567148 0.012507647
0002b0 56 29 f1 bd bc f6 60 3d 14 f6 ad bd 40 71 87 3c
       -0.11775462 0.054922804 -0.08494201 0.016533494
0002c0 ac 1f df 3d bc 22 b8 3d 48 69 7d 3d 24 4e fc 3d
       0.10894713 0.08991 0.061867982 0.12319592
0002d0 64 96 61 3d fc 55 7f bd f2 05 e0 bd 34 6d ba bd
       0.055075064 -0.06233786 -0.10938634 -0.0910286
0002e0 ac 9a 1f 3d 06 96 f2 bd 4c 06 de 3d b4 a2 82 bd
       0.038965866 -0.11845021 0.10841045 -0.063786894
0002f0 c0 55 3a bb 20 8c 3b 3d 40 f2 3e bd d8 8b 80 bd
       -0.0028432459 0.04578793 -0.046617746 -0.06276673
000300 00 5f 49 bc a4 60 5e 3d e8 d7 75 3d 38 78 ee 3c
       -0.012290716 0.054291382 0.060020357 0.02911006
000310 c2 32 c3 3d 4c ca e9 bd 4c d5 1a 3d 5a b5 c3 bd
       0.09531166 -0.11415538 0.037801072 -0.095560744
000320 62 d5 ef 3d 16 f1 cf 3d 00 2c 2b 3b 44 3a 61 bd
       0.117106214 0.10153405 0.0026118755 -0.054987207
000330 80 2c 22 bd 24 52 0c bd 40 c4 22 bc 14 d8 41 3d
       -0.03959322 -0.034258023 -0.009934485 0.04732521
000340 6e 5a e5 3d e6 54 a5 3d a0 33 9a bb 50 4e 2a bd
       0.11198889 0.08072834 -0.004705861 -0.04157859
000350 78 7f 2d bd 6c 61 7e bd 30 ea 02 bc a8 f3 ab 3d
       -0.04235789 -0.062104627 -0.007990405 0.08396083
000360 f8 04 c1 3d c8 8f 12 bd 30 bc b5 3d c0 70 85 3d
       0.09424776 -0.03578165 0.088737845 0.06515646
000370 0a c8 e5 3d 80 b0 95 bc f0 ee 60 3d c8 92 63 bd
       0.11219795 -0.018272638 0.05491537 -0.055559903
000380 a8 4a 78 bd 20 29 4f 3d 6c 78 55 bd 00 2e 52 ba
       -0.060618073 0.05057633 -0.052116796 -0.0008017719
000390 14 b9 b0 3d 1a cd b1 3d 10 b1 0e bc 4e ce 96 3d
       0.08629051 0.08681698 -0.008709207 0.07363568
0003a0 dc 11 95 bd 74 b4 91 bd 08 e0 0d bd f4 2c 3f 3d
       -0.07278797 -0.07114497 -0.03463748 0.04667373
0003b0 38 30 bc bd f8 fc 88 3d 78 b5 25 bd b4 e4 f2 3d
       -0.091888845 0.06688875 -0.040456265 0.11860028
0003c0 20 94 59 3d 10 2c 92 3c 1c 5d a9 bd b8 4b 40 3d
       0.05311978 0.017843276 -0.08269712 0.04694721
0003d0 e4 b1 04 bd 10 86 61 3d f0 8d ad 3c d0 6d b8 bc
       -0.032396212 0.055059493 0.021185845 -0.0225133
0003e0 50 e8 e6 3d 18 9b ca bd c8 82 ab bc 64 f4 9a 3d
       0.11274779 -0.09892863 -0.020936385 0.07566145
0003f0 28 17 ca 3d f4 68 e1 3d 20 41 c4 3c 94 34 c1 3d
       0.09867698 0.11006346 0.023956835 0.094338566

LSTM_layer_3.bias_ih_l0 f4 [256]
000000 d3 2b d4 bd b6 8d 07 3e 72 b5 cd bd a9 f9 b7 3d
       -0.10359921 0.13237652 -0.100443736 0.08983166
000010 92 f0 e0 bd 4e 47 90 bd ef 4e dc 3d 33 9c 26 bd
       -0.10983385 -0.0704485 0.10757243 -0.040676307
000020 33 fd 52 3d 41 00 c0 3d 6e 74 90 3d 32 5b 8a 3d
       0.051511 0.093750484 0.07053457 0.067556754
000030 10 3b 0d bd 85 d5 c0 3d c3 74 ac bd 2f 11 48 3c
       -0.034480155 0.094157256 -0.08420708 0.012211128
000040 33 2a 13 bd aa 9b c7 3d 4a eb 05 3e 23 8f aa 3d
       -0.035928916 0.097464874 0.13078037 0.083280824
000050 c0 1c 92 bc c3 e7 71 bd 6b d2 2c bd 15 f2 a8 bc
       -0.017835975 -0.059058916 -0.042192858 -0.020623246
000060 ed bf 06 be c4 4a 9f bd f0 34 86 bd 48 fc 45 3d
       -0.13159151 -0.07777932 -0.06553066 0.048336297
000070 a4 21 a5 bd 53 03 2e 3d f5 ae c0 3d 04 fa 9d 3c
       -0.08063057 0.04248364 0.094083704 0.019284256
000080 af c5 7c bd 5d c5 e8 3d 61 87 e6 3d b5 33 ff bc
       -0.061711963 0.11365769 0.1125629 -0.031152586
000090 07 1a c4 3d 35 ae df 3c 4f 68 a2 3d cd 77 cb 3c
       0.09575277 0.027304748 0.079300515 0.024837399
0000a0 57 3d ca bc ed 07 73 bd be ff 07 3d 21 8f 38 3d
       -0.024687452 -0.05933373 0.03320288 0.045058373
0000b0 ef 39 99 3c ee 43 cb bc 0c 94 8b 3d 49 65 ed 3c
       0.018704383 -0.024812665 0.06815347 0.02897896
0000c0 1e 69 6a 3d 39 4d 85 bb 55 9e 33 bd 59 6a 8d bb
       0.057229154 -0.0040680435 -0.04385217 -0.004315656
0000d0 5e cb e7 bb fd ff bf bd e8 68 a3 bd ef 66 75 3b
       -0.007073804 -0.09374998 -0.07978994 0.0037445386
0000e0 91 cf 94 3d 1f fd ad 3d 59 23 b5 bd ff 89 ed 3d
       0.07266153 0.08495545 -0.08844633 0.11598586
0000f0 2c 79 80 bd 63 6a 19 3d b9 a3 21 bd 14 6c 07 bd
       -0.06273112 0.037454974 -0.03946278 -0.033062056
000100 da 3b e8 3d a2 8e 8d bd 06 66 da 3d 28 0d ae bc
       0.11339541 -0.06911971 0.10663991 -0.021246508
000110 12 26 a3 bd 14 6a 72 bd 20 21 09 bc 10 7d 32 3d
       -0.07966246 -0.059183195 -0.008369714 0.0435763
000120 10 dc e0 bc 70 8a 46 3c 48 af 67 3d ac 04 05 3d
       -0.027448684 0.012117967 0.056563646 0.03247516
000130 4c 4e a1 3d b2 41 b4 3d a8 58 b3 bc 78 a5 2a bd
       0.07876262 0.08801593 -0.02189286 -0.04166171
000140 00 73 39 3a 46 8b 89 3d 70 c8 3d 3c ec 02 22 3d
       0.0007074326 0.067160174 0.011583433 0.039553568
000150 c0 fc ab 3c 46 f7 ab bd 00 da 23 bc 58 bd 13 3d
       0.020994544 -0.08396773 -0.010000706 0.036069244
000160 74 9e 93 bd ec 63 be 3d 3c fd ee 3d a4 67 a4 3d
       -0.07207957 0.09296402 0.116693944 0.080275804
000170 d4 38 86 bd 3c 06 4b bd 94 05 48 3d e8 07 be bc
       -0.06553808 -0.049566492 0.048833445 -0.02319713
000180 00 3c 6d ba d8 67 c7 3c b4 f9 e9 bd a8 de b2 3c
       -0.0009049773 0.024341509 -0.1142458 0.021834686
000190 84 1a 7b 3d c2 ac ca 3d 00 57 b3 bd 64 55 b3 3d
       0.061304584 0.09896232 -0.08756828 0.08756521
0001a0 50 7f e8 3c c2 55 8d 3d 18 07 9b bc 2c 06 b5 3d
       0.02838102 0.06901123 -0.018924281 0.08839068
0001b0 5a f1 eb bd 7e 0d 9c 3d f0 7c 17 bc fc 11 e0 bd
       -0.115206435 0.07619761 -0.009246096 -0.1094093
0001c0 50 74 2b bd 40 cd a3 3d a8 59 17 3d 4c 16 f8 3d
       -0.04185897 0.07998133 0.036950737 0.12113628
0001d0 66 0e df 3d 88 a4 80 bd 22 7b a7 3d 3c 18 cb bd
       0.10891418 -0.06281382 0.081777826 -0.09916732
0001e0 9e 72 81 3d da cc 92 bd 14 33 c2 3d da fa f9 bd
       0.063206896 -0.071679786 0.09482399 -0.12206049
0001f0 60 e2 df bc bc c5 4d 3d ec 65 2d bd 10 68 80 3d
       -0.027329624 0.050237402 -0.04233353 0.06269848
000200 49 de 24 bd 69 e4 bb 3d 19 15 78 bc 7e ba e9 3d
       -0.04025105 0.09174425 -0.015141749 0.11412524
000210 d2 39 51 bd db 37 53 3d 64 67 a3 3d 2a f3 8a 3d
       -0.051080532 0.05156694 0.079787046 0.06784661
000220 08 7b ce 3d 0e c2 31 bd 2a aa 4a 3d 63 c3 91 3d
       0.1008206 -0.043397956 0.049478687 0.07117345
000230 fa 04 89 bd 18 7b 0b 3e 2b a1 04 3e 98 d5 fa bd
       -0.06690402 0.13621175 0.12952106 -0.12247771
000240 b8 65 7b 3b d5 23 3c 3c 0d 43 f5 3d 3b 05 90 3d
       0.003836019 0.011483152 0.119756795 0.07032248
000250 e9 0c 75 bd e8 77 bb bd 82 94 15 be 5c 8f de bd
       -0.059826765 -0.0915373 -0.14607432 -0.108671874
000260 8f a9 a8 bd 40 d0 bb bd e6 d4 c7 bc fa 41 42 3b
       -0.08235466 -0.0917058 -0.02439351 0.0029641376
000270 aa ee db 3d 4a 1b 4d bd cf 09 91 bd d3 7e 8d 3d
       0.10738881 -0.050074853 -0.07081949 0.069089554
000280 d1 db dd 3d 5b cf 31 bd 0f fb 1a bd a0 f8 19 3d
       0.10832942 -0.04341064 -0.037837084 0.037590623
000290 29 fc d9 3d 04 95 b8 bd e2 72 88 3b 86 2e e9 bc
       0.10643799 -0.090127975 0.0041640857 -0.028464567
0002a0 0a 66 b1 3d 38 4a 1b bc 97 1a 6a bd af c5 91 bd
       0.086620405 -0.009478144 -0.057154264 -0.07117783
0002b0 59 c1 09 3c ae a1 51 bb 6c 23 9c bd 81 09 ac 3d
       0.008407914 -0.0031987238 -0.07623944 0.0840025
0002c0 6d be ee 3b 5a 3a ad bd 99 f6 a9 bd e2 4e cf 3d
       0.007285884 -0.08458395 -0.08298988 0.101224676
0002d0 8b be bc 3d 9c 2d d0 3c 3d 31 88 3d 58 75 d0 bd
       0.09216031 0.025412373 0.066500165 -0.101786315
0002e0 3c dc 26 3d 3c ec 6e bd fb 01 be 3d 72 e3 f2 3c
       0.040737376 -0.05833076 0.092777215 0.02964947
0002f0 52 83 14 bc a9 f5 20 3d 6a 0b 11 3d 01 93 9b bd
       -0.009064512 0.03929678 0.035411276 -0.07596398
000300 3d 41 b4 3d a8 bb 29 bd 4b 5c 18 bd e0 e5 58 bd
       0.08801506 -0.04143873 -0.037197392 -0.0529536
000310 89 95 48 bb 4c f0 bf bd d1 37 b2 bd b4 e6 b4 bd
       -0.0030606708 -0.09372005 -0.087020524 -0.08833066
000320 64 13 12 bc 90 74 d0 bb 9f 33 f3 3d 62 fd e0 3d
       -0.008915756 -0.0063615516 0.1187508 0.10985829
000330 52 06 8c 3b a2 c2 8b 3d b4 85 00 3e 46 ce f3 3d
       0.0042732144 0.06824233 0.12551004 0.11904578
000340 46 1d ac 3d 9d 14 0f bc ef 80 99 bc a3 06 3e 3d
       0.08404021 -0.008732942 -0.018738238 0.046393048
000350 3c 0e 98 bd e3 39 c8 bd e6 4c 6e bd 6b 54 7c bd
       -0.0742459 -0.09776666 -0.058178805 -0.061603945
000360 8b a3 40 3c 26 34 9b 3c eb fd 9c bd 8d 4b 89 3c
       0.011757742 0.018945765 -0.076656185 0.016759658
000370 bd 5b 8b 3c a3 06 82 bd 08 e5 c7 bc 6f e4 ff 3d
       0.017011518 -0.06348922 -0.024401203 0.12494742
000380 9c 46 b5 bd 8c 5d 41 3c a4 5d 0a 3d 78 cc b6 3d
       -0.08851358 0.0118020885 0.03378071 0.08925718
000390 c6 53 db bd 18 92 f4 3d 2b 40 80 3c 4f 54 d6 bd
       -0.10709338 0.11941928 0.015655598 -0.10465299
0003a0 35 2d d6 bc 33 9e 8a bd 13 bf d4 bc bf 79 d6 3d
       -0.026144603 -0.06768455 -0.025970018 0.1047244
0003b0 de 5a 10 3d 23 4b 05 be 01 52 b3 bd 39 12 0c bd
       0.035242908 -0.13016944 -0.087558754 -0.034197066
0003c0 17 d4 f9 bc 17 46 96 3c 36 2e a0 ba d4 ee 96 3c
       -0.03049664 0.018343968 -0.0012220803 0.018424429
0003d0 f6 83 cd 3d e5 96 e6 3d ab fa 83 3d 2c bc f5 3d
       0.10034935 0.112592496 0.064442955 0.119987816
0003e0 ad a5 2d bd 9a b8 04 3e bc 47 72 bc 6c 6c 78 bd
       -0.04239433 0.12961045 -0.014787611 -0.060650274
0003f0 4a b0 b6 3d 05 01 b1 3d 76 c3 92 3d 54 d4 3e bd
       0.08920343 0.086427726 0.071661875 -0.04658921

LSTM_layer_3.bias_hh_l0 f4 [256]
000000 ab 4e 87 3c 23 4b a8 3d 8e a9 a0 bd d4 3b 07 bd
       0.016517004 0.08217456 -0.0784484 -0.03301604
000010 3e 9c 6d bd 16 99 8c bd c3 b7 29 bd c5 3c 9b 3d
       -0.058010332 -0.06865136 -0.041435014 0.0757995
000020 25 4b c7 bc 6d d1 af bc 8f 0c 82 bd a7 3f e4 bc
       -0.024327824 -0.021462167 -0.063500516 -0.027862383
000030 59 e0 16 3d ab 6f 6c bd 2f 7c 10 bd 02 08 38 bd
       0.03683505 -0.057723682 -0.03527468 -0.04492951
000040 17 ca 9e 3d 7e 96 b0 3d 4c 57 7a 3d 5e 74 29 bd
       0.07753389 0.08622454 0.06111841 -0.041370742
000050 9f ef 80 bb 0f 5d ea bd b1 23 83 bc 6d 54 30 3d
       -0.003934815 -0.11443531 -0.01600823 0.043049265
000060 ba bb f3 bc b6 b5 8f bd ca 23 13 bd 47 59 28 bd
       -0.029752601 -0.070170805 -0.035922803 -0.041100767
000070 68 7d 9f 3d 08 d9 bb bd 68 cc 8a 3c e7 fd 32 3c
       0.07787591 -0.09172255 0.016943172 0.010924793
000080 a3 b4 ce 3d 95 4a 1c 3e 51 55 89 3d 5d 89 ce 3d
       0.100930475 0.15262826 0.06705726 0.10084794
000090 4c 59 83 3d 71 f6 c1 bc 35 8b ea 3c c9 f1 ff bd
       0.064135164 -0.023677083 0.028630832 -0.12497289
0000a0 d0 98 12 bd dd f7 dc 3d c3 73 9d 3d 00 9b 6c 3b
       -0.035790265 0.10789464 0.076880954 0.003610313
0000b0 b1 54 d4 3d f7 73 82 3d 74 fc e1 3d e0 94 c3 39
       0.10367716 0.06369775 0.1103448 0.0003730422
0000c0 2e 8f 6a 3d 99 28 ee 3d be d7 93 3d d8 8c e4 bd
       0.057265453 0.11628837 0.07218884 -0.11159676
0000d0 07 bc 4a bd 04 98 45 3c 2c 76 97 bd 9b 50 9b 3d
       -0.049495723 0.012060169 -0.07395586 0.07583734
0000e0 66 78 9e 3d 6c d6 f9 3d c7 4a d3 3d 0d 6a b5 bd
       0.07737808 0.12199101 0.10316997 -0.08858118
0000f0 dd 4b ca 3d ed f0 9e bc 8a 9c 9b bd 7e 58 78 3d
       0.09877751 -0.019401992 -0.07598217 0.060631268
000100 8c da 98 3d a4 61 83 3d 4e 53 ed 3d 3e 28 c7 bd
       0.074635595 0.06415108 0.11588155 -0.097244725
000110 02 87 8c 3d 44 7b 1a bd 00 da 18 3b 3c 30 65 bd
       0.06861688 -0.03771521 0.0023323298 -0.055954203
000120 24 4b 42 bd f8 28 af 3d b0 5a f1 bc c8 2a 86 bc
       -0.04743494 0.08552736 -0.029462188 -0.016377822
000130 7c 46 6c bd 80 09 7e 3d 54 fd 28 bd 60 45 e8 3d
       -0.057684407 0.06202078 -0.041257218 0.11341357
000140 e0 1f 83 3c 5a 10 b9 bd 06 5a ec 3d 60 db 37 3d
       0.01600641 -0.09036322 0.11540608 0.044886947
000150 f0 5a 50 3c a4 d1 82 3d 58 d2 2b 3d 7a 03 e7 3d
       0.012716994 0.06387642 0.041948646 0.1127996
000160 80 d7 9d 3b f8 e1 9b 3c 52 aa e0 bd 04 6f 50 bd
       0.0048169494 0.019028649 -0.10969986 -0.050887123
000170 ac 07 27 bd 6c 2b d1 bd ec f6 42 3d ac ac 29 3d
       -0.0407788 -0.1021336 0.047598764 0.04142444
000180 86 61 8c 3d 88 f6 23 3d 2e 1a fe 3d 00 80 8c bb
       0.068545386 0.040030032 0.12407337 -0.0042877197
000190 04 31 55 bd 40 cf 79 3c c0 5e c5 3d 4e a8 b9 3d
       -0.052048698 0.015247166 0.09637213 0.09065305
0001a0 be 79 d1 3d 60 39 e9 bd 50 2a 95 bc 78 98 43 bd
       0.102282986 -0.113878965 -0.018208653 -0.047752827
0001b0 f8 b8 c4 3c e0 9f 80 bc 66 ae ea bd c6 c4 83 bd
       0.024013981 -0.015701234 -0.11459045 -0.06434016
0001c0 a0 5d 86 bc 58 72 8a 3d b8 49 ca 3d 0c 39 e7 3d
       -0.016402066 0.067600906 0.09877342 0.11290178
0001d0 7c dd d3 3d 32 73 d8 3d 40 64 ef bb 58 ff d2 bc
       0.10344979 0.10568847 -0.007305652 -0.025756523
0001e0 78 6e b2 3d e6 10 f0 bd 10 8d 0e bc 1e d7 fe 3d
       0.087124765 -0.11721973 -0.008700624 0.12443374
0001f0 80 0b 75 bb a6 b9 fa bd d8 d6 d4 3d 2c 93 84 3d
       -0.0037390888 -0.12242441 0.10392541 0.06473383
000200 86 9c d1 3d ff ec 7c bd 98 a2 e7 bd b3 da 63 3d
       0.102349326 -0.061749455 -0.11310309 0.05562849
000210 60 5c d6 3d a4 1a c6 3d 0a 54 37 bd 87 dc e6 3d
       0.10466838 0.0967305 -0.04475788 0.11272531
000220 0d 24 3d 3d 6b fb ca 3d 63 80 d2 bc 4b 60 bb 3d
       0.04617696 0.099112354 -0.025695985 0.09149226
000230 33 b4 81 3b c0 7a ad bd 33 c9 e8 bd 66 66 f6 bd
       0.003958249 -0.08470678 -0.11366501 -0.1203125
000240 7f 07 66 bd 4a dd 94 3d 1b 74 c2 3d 5b d0 8a 3d
       -0.056159493 0.0726877 0.094948016 0.06778022
000250 ae 44 cd 3d 51 6c 3a bd fc 60 c6 bd 91 42 86 bd
       0.10022865 -0.045513455 -0.09686467 -0.06555665
000260 cc dc 68 bd b6 d1 ad 3d 97 17 e9 3d 79 08 58 bd
       -0.056851193 0.08487265 0.113814525 -0.052742455
000270 2a ad bc bd 03 e0 34 3d 59 34 a2 bd 69 8d da bd
       -0.09212716 0.044158947 -0.07920141 -0.10671503
000280 e4 6d 51 bc ae 6d 92 bd 67 68 d7 3b 78 b7 23 bd
       -0.012782548 -0.07149826 0.006573725 -0.03996989
000290 7f 06 c1 3d ec 71 55 bd 32 45 32 bc f4 a7 b4 3b
       0.09425067 -0.052110597 -0.010880755 0.0055131856
0002a0 ea 80 a8 3d 32 07 b9 bc d4 d2 e8 bd 5f 43 d0 bd
       0.082277134 -0.022586439 -0.11368337 -0.101691
0002b0 64 8a f2 bd 06 19 05 bd 98 10 b7 bd a3 4c fd bd
       -0.11842802 -0.032494567 -0.08938712 -0.12368133
0002c0 c0 fd 0d bd 40 b8 af bd df 7f 46 3d 94 d6 97 bc
       -0.034665823 -0.08580065 0.04846179 -0.018534936
0002d0 55 16 30 3d ff 7d a5 bc 01 81 d6 3d a0 64 b3 bd
       0.042990047 -0.020201681 0.10473824 -0.08759427
0002e0 57 ba b1 3d ca 7b e8 bb db bb 19 3b 29 d0 f7 3c
       0.0867812 -0.007094835 0.0023457918 0.030250626
0002f0 50 fd 3a 3d 34 7d 75 3c 44 37 ca 3d 79 34 65 3c
       0.045651734 0.014983464 0.09873822 0.013989561
000300 d2 68 10 bd 2a f1 13 3e d5 ba 7a 3d de 1c 0f 3e
       -0.035256214 0.14447466 0.061213333 0.13975856
000310 b1 6d de bd fc 5b 01 3e 97 48 6e bd 07 21 92 3d
       -0.10860766 0.12632746 -0.058174696 0.07135206
000320 14 05 89 bd a4 15 b5 3d a1 aa fd 3d ca 04 3d 3d
       -0.06690422 0.08842018 0.123860605 0.046147145
000330 d8 c9 5b 3d aa bd 18 ba f7 39 b8 3d f2 c7 cd bd
       0.05365929 -0.0005826602 0.08995431 -0.10047902
000340 6d 23 72 bd 83 0f da 3d cc 2e b4 3d 68 f8 b6 bd
       -0.059115816 0.1064749 0.08797988 -0.089340985
000350 5e 71 f3 3c 95 1a 91 3c 46 0f 0c 3d 05 90 83 bd
       0.029717144 0.01771287 0.034194253 -0.06423954
000360 9f ca 84 bd de 1d dd bd 74 5e 1b 3d 1f ce e0 3b
       -0.064839594 -0.10796712 0.037931874 0.006860509
000370 66 f5 78 3d 13 64 ec 3d fd 86 87 3d f1 66 06 3e
       0.060780905 0.11542525 0.06617544 0.13125207
000380 ae 01 ee 3d f9 2b fc 3c 95 20 90 bd 6c 04 0e 3e
       0.11621414 0.030782687 -0.070374645 0.13868874
000390 50 03 c3 bd 2b 52 43 39 b0 aa d6 bd f3 71 dc bd
       -0.09522116 0.00018627259 -0.10481775 -0.107639216
0003a0 3e f4 79 bd 69 02 cd 3d 68 c9 4f bd 33 d1 18 3c
       -0.061023943 0.10010225 -0.050729185 0.009327221
0003b0 88 32 74 bc a5 ef 91 bc ca 79 42 3d b4 70 0b 3d
       -0.014904626 -0.017814467 0.04747943 0.03404303
0003c0 c7 99 8b bd 07 7b e8 bc 56 f7 ea 3d eb 70 19 3d
       -0.0681644 -0.028378977 0.11472957 0.037461203
0003d0 0a a0 bd bd 67 6c d3 3d b5 ca a3 3d 22 f5 0b 3e
       -0.09259041 0.103234105 0.07997648 0.1366773
0003e0 28 7b df bd d3 0d 0f 3e 5d 85 42 3d 68 0c 02 3e
       -0.10912162 0.13970117 0.047490466 0.12700045
0003f0 a1 ab cc bc b1 27 f7 3c 6e 70 c5 bb 23 4d 08 bd
       -0.024984183 0.030170294 -0.0060253656 -0.03327669
