weight/critic.pkl (torch_old, 243535 bytes, 11 tensors)

linear1.weight f4 [64, 4]
0.11748636 -0.49639517 -0.38757223 -0.12251836 0.036096573 -0.030391335 -0.43667865 -0.09634042
-0.27700335 -0.43006748 -0.23490757 -0.08595395 -0.08482791 0.095180236 0.41931883 0.35879752
-0.059956253 0.012679219 -0.0074341297 0.040048003 0.11839694 -0.0019274263 0.43652996 0.0065581724
0.48553884 0.022162905 0.5509191 0.026831176 -0.0043571726 -0.19858861 0.1657915 0.09455412
-0.22373258 0.40132886 0.47695872 -0.39798033 0.1911739 0.47235632 0.4179569 0.35415816
-0.056584354 0.36777923 -0.18389378 0.083421275 -0.0146738095 0.45078045 0.4803339 -0.3715635
0.33243173 0.12689906 0.34875482 0.2923376 -0.06465143 -0.43233025 0.38143432 -0.37516737
-0.13286331 0.24228011 -0.44435 -0.23448494 0.41615835 -0.15693013 0.2060664 0.41313502
-0.12350212 -0.42471492 0.09549038 0.2628332 -0.013609325 -0.107357256 -0.14603245 0.25136504
-0.12318057 0.47788852 -0.4649593 0.25350156 -0.14385849 0.18751629 0.2685952 -0.017966881
-0.17355986 0.15452576 -0.32877782 -0.01728654 0.106284566 -0.36116084 0.21871877 -0.4272571
-0.27016228 -0.096374124 0.39123172 -0.3523536 0.018108113 0.04833749 0.346374 -0.09643108
-0.44616616 -0.17867106 0.066682756 -0.44833148 -0.14747505 0.38524964 0.21318775 0.019299882
0.24981403 0.12672153 0.36103013 0.4144075 0.019501183 -0.22607596 0.5167095 0.15546055
0.43753412 0.07810664 -0.30538917 0.048304576 -0.28764683 -0.36611527 0.03377652 -0.37896347
0.33825177 -0.043968756 0.13807896 0.35162637 -0.22091417 0.1898029 -0.4716124 0.12947075
0.30020475 0.36026457 0.13540472 0.052059248 0.3419356 0.17560281 0.063013904 -0.34232107
0.45562312 -0.02822788 -0.20001861 -0.27866256 0.17644963 0.34596264 0.33028984 0.1035064
-0.35331458 -0.30819523 0.19762176 -0.35104 0.23348968 0.44471225 -0.3835732 -0.2686187
-0.57741594 0.15111698 -0.34343442 0.3575245 0.036772147 -0.31264418 0.37280437 0.27350274
0.26932728 0.33584896 -0.32583866 0.06536274 0.12938054 0.012271046 0.3348841 0.3757043
-0.58271176 -0.12893218 -0.27573618 0.012428498 0.35924459 0.084551804 0.24831137 -0.27832195
-0.37591642 0.38684577 -0.5556941 -0.0042176424 -0.042362563 -0.35028848 0.4354842 0.20839426
0.19560733 0.06505294 0.24216352 -0.14708136 -0.48614317 -0.38337666 0.15771097 -0.058885694
-0.028611017 0.47556403 -0.43752706 0.18965797 0.20605192 0.1859743 0.39156505 0.076849006
0.265082 -0.3295399 0.09751586 0.043582577 -0.23265094 -0.24475062 -0.4882626 -0.11094874
-0.3259818 0.32294112 0.20555761 0.069909014 -0.2717606 0.39371693 0.40032005 0.44842425
0.077287726 0.21176769 0.27827543 -0.28608453 -0.25068808 -0.39671236 0.09776068 -0.2501406
-0.35747737 -0.4216893 -0.04328277 0.45889822 0.027093811 0.00019494374 0.4890235 -0.24453057
-0.48142663 0.39075032 -0.49994972 -0.46058196 -0.09396665 -0.1384035 -0.21199638 0.18796055
0.19233935 0.47083437 -0.014193019 -0.08205297 0.03262076 0.38243863 -0.346309 -0.10972999
0.1422342 -0.33927038 -0.08616257 0.41851094 0.43932766 -0.19957942 0.023372708 0.43287483
00000000: b09c f03d 8227 febe de6f c6be e8ea fabd
00000010: 00da 133d 40f7 f8bc 5894 dfbe 204e c5bd
00000020: 62d3 8dbe ce31 dcbe 9c8b 70be a008 b0bd
00000030: 41ba adbd dbed c23d f5b0 d63e 4fb4 b73e
00000040: b094 75bd 80bc 4f3c 009a f3bb 6009 243d
00000050: 187a f23d b2a1 fcba db80 df3e f0e5 d63b
00000060: 8c98 f83e fb8e b53c 0909 0d3f 0ecd db3c
00000070: 9dc6 8ebb d05a 4bbe 3fc5 293e 97a5 c13d
00000080: 271a 65be fa7a cd3e ef33 f43e 14c4 cbbe
00000090: 17c3 433e b0d8 f13e 72fe d53e 3854 b53e
000000a0: ffc4 67bd 8f4d bc3e a74e 3cbe c6d8 aa3d
000000b0: 6b6a 70bc b2cc e63e 53ee f53e 923d bebe
000000c0: 7e34 aa3e d4f1 013e fe8f b23e 46ad 953e
000000d0: f867 84bd 645a ddbe 5c4b c33e f015 c0be
000000e0: 520d 08be 4718 783e d881 e3be d21c 70be
000000f0: b512 d53e 4bb2 20be 1203 533e 6f86 d33e
00000100: aeee fcbd 3c74 d9be 7690 c33d 1392 863e
00000110: a5f9 5ebc 1fde dbbd 8889 15be ebb2 803e
00000120: 1846 fcbd cead f43e 250f eebe f5ca 813e
00000130: a44f 13be 4504 403e 4f85 893e 482f 93bc
00000140: adb9 31be 003c 1e3e 9155 a8be 809c 8dbc
00000150: b9ab d93d 13ea b8be d0f7 5f3e 71c1 dabe
00000160: b652 8abe cc5f c5bd 864f c83e b167 b4be
00000170: 7757 943c 88fd 453d ef57 b13e a87d c5bd
00000180: e46f e4be 8cf5 36be f890 883d b48b e5be
00000190: b303 17be 713f c53e e44d 5a3e c91a 9e3c
000001a0: 40cf 7f3e 4ac3 013e f1d8 b83e 382d d43e
000001b0: f2c0 9f3c 7580 67be 1347 043f 0d31 1f3e
000001c0: 7904 e03e 60f6 9f3d f85b 9cbe 05db 453d
000001d0: 7246 93be 7673 bbbe 4059 0a3d 8007 c2be
000001e0: 562f ad3e 9518 34bd 9264 0d3e 5f08 b43e
000001f0: 5337 62be b15b 423e 2e77 f1be fb93 043e
00000200: 70b4 993e 9974 b83e 89a7 0a3e 143c 553d
00000210: 2f12 af3e 39d1 333e 6f0d 813d b544 afbe
00000220: 6f47 e93e 283e e7bc aed1 4cbe dcac 8ebe
00000230: 36af 343e 0422 b13e c01b a93e 2afb d33d
00000240: a6e5 b4be c4cb 9dbe 5c5d 4a3e 84bb b3be
00000250: eb17 6f3e 53b1 e33e b563 c4be 6488 89be
00000260: 88d1 13bf 69be 1a3e a3d6 afbe 740d b73e
00000270: 649e 163d e612 a0be 37e0 be3e 8d08 8c3e
00000280: 44e5 893e 65f4 ab3e 53d4 a6be e6dc 853d
00000290: 557c 043e 7f0c 493c ee75 ab3e 505c c03e
000002a0: 992c 15bf cc06 04be 4b2d 8dbe e6a0 4b3c
000002b0: e8ee b73e 7f29 ad3d 5645 7e3e 3780 8ebe
000002c0: 1e78 c0be a610 c63e f841 0ebf 2634 8abb
000002d0: 5e84 2dbd 0359 b3be c9f7 de3e 4e65 553e
000002e0: 4a4d 483e 7a3a 853d b7f9 773e 7f9c 16be
000002f0: c2e7 f8be f249 c4be fc7e 213e 2032 71bd
00000300: a761 eabc 217d f33e 8c03 e0be b335 423e
00000310: 46ff 523e 0c70 3e3e 377b c83e 0363 9d3d
00000320: d4b8 873e 74b9 a8be 65b6 c73d a583 323d
00000330: 0c3c 6ebe e89f 7abe 8efd f9be 1839 e3bd
00000340: 16e7 a6be 8a58 a53e b27d 523e 752c 8f3d
00000350: 3524 8bbe 4495 c93e c0f6 cc3e dd97 e53e
00000360: 0749 9e3d a1d9 583e 1e7a 8e3e ac79 92be
00000370: 305a 80be e21d cbbe c036 c83d 6e12 80be
00000380: 4607 b7be a9e7 d7be 4649 31bd b5f4 ea3e
00000390: d7f3 dd3c d069 4c39 4a61 fa3e 3966 7abe
000003a0: 8d7d f6be 6d10 c83e 69f9 ffbe 66d1 ebbe
000003b0: 9671 c0bd a6b9 0dbe 9415 59be bb78 403e
000003c0: 9bf4 443e 3411 f13e d689 68bc 630b a8bd
000003d0: 599d 053d ffce c33e 6a4f b1be 1eba e0bd
000003e0: d8a5 113e d9b4 adbe 0076 b0bd 1147 d63e
000003f0: 8eef e03e 8c5e 4cbe 1f78 bf3c c5a1 dd3e

linear1.bias f4 [64]
-0.27414447 0.048206985 0.43948716 0.18011422 -0.3085695 0.13100691 0.09505881 0.3144072
0.32781073 0.08856193 -0.09502351 0.43916315 -0.18299688 -0.49650568 -0.012738699 -0.2484095
0.20237644 0.41048396 0.22766264 0.04217656 -0.19155848 0.37973565 -0.19967432 -0.020032754
0.16126537 -0.46235746 0.21132256 0.12070557 -0.47546688 -0.37736696 0.34491163 -0.27511925
-0.34140387 0.21751545 -0.49879804 0.46243817 -0.4570998 0.12080132 0.26476017 -0.00082484714
-0.34609094 0.5037459 0.39889598 0.060658406 0.10293303 0.27546203 -0.43010187 0.37754512
0.3760663 0.26866308 0.44994915 -0.33466512 -0.45499447 -0.24411589 0.25676912 0.48620778
-0.13252102 -0.3457096 0.4969409 -0.25279212 0.092105605 -0.2367462 0.21593599 0.12433673
00000000: aa5c 8cbe b074 453d 7604 e13e dd6f 383e
00000010: d2fc 9dbe ad26 063e 32ae c23d fbf9 a03e
00000020: cfd6 a73e f55f b53d b09b c2bd fed9 e03e
00000030: 8963 3bbe fe35 febe fab5 50bc 0f5f 7ebe
00000040: c53b 4f3e f42a d23e 6520 693e 54c1 2c3d
00000050: e827 44be b66c c23e 6d77 4cbe bb1b a4bc
00000060: c022 253e 1eba ecbe f164 583e 7b34 f73d
00000070: 6570 f3be 3e36 c1be 4298 b03e 6edc 8cbe
00000080: 7dcc aebe 5fbc 5e3e 7562 ffbe b2c4 ec3e
00000090: fc08 eabe af66 f73d a58e 873e 8e3a 58ba
000000a0: d532 b1be 7ef5 003f 183c cc3e f374 783d
000000b0: 8dce d23d 5c09 8d3e 5036 dcbe 984d c13e
000000c0: c38b c03e 358e 893e bc5f e63e 3a59 abbe
000000d0: 09f5 e8be 84f9 79be 3e77 833e 3af0 f83e
000000e0: 97b3 07be d900 b1be 0a6f fe3e f86d 81be
000000f0: dda1 bc3d 996d 72be 531e 5d3e 41a4 fe3d

linear2.weight f4 [128, 64]
-0.052540362 -0.10320571 0.054676294 0.09949943 0.03607899 -0.15603045 -0.012867808 -0.063615575
-0.08405347 -0.0066106296 0.011399803 -0.14354911 -0.016008444 -0.019142821 0.056885015 0.00681663
0.012190078 -0.054401986 -0.023076486 -0.04224268 0.09280583 -0.03688786 0.103247404 -0.10247327
-0.060049757 -0.014551651 -0.043280765 -0.00988415 -0.09931812 -0.10769038 0.092453845 0.11069803
0.03491573 -0.01842682 0.015370615 -0.12270112 -0.019467965 0.11018523 -0.01560313 -0.08066688
-0.009876038 0.083111525 0.1959094 -0.06367039 -0.03741599 -0.1463818 0.071605384 -0.088308945
-0.09418855 -0.14718288 0.09975364 0.091708004 -0.11588366 -0.009978143 -0.0070738737 -0.007065743
0.10959711 -0.12234067 0.11638493 -0.02202586 0.09455719 0.05328818 -0.04945301 0.08123881
-0.062211692 0.115669474 0.0018692315 -0.10983196 0.05563517 -0.00454751 0.049075115 0.0155396275
-0.019616775 0.076103725 -0.085082315 -0.060608253 0.12220537 -0.05247791 0.08608746 0.05096628
-0.04058014 -0.047101375 -0.1165178 -0.06090226 -0.017726723 0.03130897 -0.008949468 0.0076926267
0.088577464 0.004552134 0.056444976 0.20205268 -0.015812753 -0.12165822 -0.08340411 -0.1270035
-0.019187922 0.07473338 -0.096742705 0.077084936 0.10031405 -0.0806961 0.021212565 0.005625555
0.09163368 -0.014794109 0.1255077 0.04882672 -0.1525251 -0.04649528 0.1151901 -0.1014695
-0.04367408 0.06292337 0.050982144 0.08967738 -0.05876138 -0.010457208 -0.052353498 -0.008521825
0.07889763 -0.05655834 0.031656377 -0.00029956934 -0.055268645 -0.16340113 0.042268734 0.117420554
0.07910091 -0.023551628 -0.03494957 -0.013978395 -0.038735136 0.058474615 -0.03977508 0.06753332
0.093849 0.05809217 0.017001858 -0.084907 -0.02208786 0.09610036 -0.017870644 0.05256605
0.08518509 -0.012219236 -0.06946904 -0.046799727 0.014552897 -0.040958155 -0.028184388 0.08100679
-0.051166683 -0.10610382 0.06846606 -0.014258991 0.027718542 -0.07206555 -0.08669783 0.12013163
0.0638499 0.10885876 -0.0031982514 -0.07854004 -0.050543457 0.07800598 0.14086387 0.05960396
-0.12385116 0.105047874 0.1615438 -0.024786329 0.00037631698 0.025901075 -0.093943745 -0.055062726
0.0976155 -0.10146424 0.0768087 -0.06274104 0.03382095 -0.06460791 0.033359542 0.099786
0.008745416 -0.06909282 -0.036678616 0.06405786 -0.0419185 0.07272925 0.003306799 -0.04583385
-0.074478075 0.026175752 0.05947791 -0.12562442 0.0054776818 0.08428236 -0.10278152 -0.05479147
-0.031789146 -0.026286786 0.08093773 -0.06764976 -0.048377093 -0.041962594 -0.07728989 -0.03974452
-0.0016757726 -0.014447865 -0.006888637 0.072524436 0.12690182 0.05863753 -0.07329976 -0.03251893
0.057343543 0.055280846 0.08953742 0.06648434 0.021069735 0.07517329 -0.0318043 0.084301196
0.023914153 0.041121054 0.11180229 0.058570232 0.013245344 -0.115044266 0.00671967 -0.12074413
0.042918608 -0.06984345 -0.0643155 0.06651875 0.12870042 -0.05781393 -0.072109155 -0.07368864
0.076141655 -0.0025450327 -0.01377284 0.08432582 0.10551671 -0.093504325 -0.14791512 -0.12431294
0.0009772048 0.040072303 0.10966249 0.08121059 -0.12421523 0.102211766 -0.08769355 0.041734274
00000000: 9034 57bd 845d d3bd 40f4 5f3d 5bc6 cb3d
00000010: 90c7 133d 72c6 1fbe 80d3 52bc e248 82bd
00000020: 3a24 acbd fb9d d8bb 3dc6 3a3c 8afe 12be
00000030: 2424 83bc 68d1 9cbc 4300 693d 095e df3b
00000040: e5b8 473c 9ed4 5ebd e60a bdbc a906 2dbd
00000050: fc10 be3d ba17 17bd 6073 d33d 81dd d1bd
00000060: bcf6 75bd 0c6a 6ebc 2c47 31bd 21f1 21bc
00000070: 4c67 cbbd c68c dcbd 7158 bd3d a6b5 e23d
00000080: cc03 0f3d d8f3 96bc 08d5 7b3c ba4a fbbd
00000090: 487b 9fbc cba8 e13d 45a4 7fbc ad34 a5bd
000000a0: 1bcf 21bc 6036 aa3d 799c 483e 9f65 82bd
000000b0: 8241 19bd 1ce5 15be d8a5 923d 52db b4bd
000000c0: ede5 c0bd 1cb7 16be a34b cc3d 68d1 bb3d
000000d0: 6a54 edbd 5d7b 23bc f4cb e7bb c087 e7bb
000000e0: 7374 e03d bf8d fabd 395b ee3d 946f b4bc
000000f0: 33a7 c13d b544 5a3d 3d8f 4abd 8960 a63d
00000100: b0d1 7ebd 1ee4 ec3d 0001 f53a 94ef e0bd
00000110: b4e1 633d 4703 95bb fd02 493d ec99 7e3c
00000120: 5cb3 a0bc 45dc 9b3d a33f aebd 5c40 78bd
00000130: cf46 fa3d 14f3 56bd 9f4e b03d 05c2 503d
00000140: 5c37 26bd 5fed 40bd e2a0 eebd a674 79bd
00000150: a237 91bc d63d 003d caa0 12bc 6e12 fc3b
00000160: 1a68 b53d 112a 953b d932 673d e6e6 4e3e
00000170: bf89 81bc f227 f9bd c6cf aabd 350d 02be
00000180: fd2f 9dbc d00d 993d 0a21 c6bd b5de 9d3d
00000190: 7471 cd3d ff43 a5bd f9c5 ad3c 9356 b83b
000001a0: 70aa bb3d fe62 72bc 1785 003e 87fe 473d
000001b0: 8a2f 1cbe d671 3ebd cae8 eb3d 3ecf cfbd
000001c0: 98e3 32bd f8dd 803d a7d2 503d c6a8 b73d
000001d0: c6af 70bd b654 2bbc 9f70 56bd 209f 0bbc
000001e0: 1595 a13d b8a9 67bd 1eaa 013d 840f 9db9
000001f0: 6061 62bd a052 27be fb21 2d3d 307a f03d
00000200: a8ff a13d 58ef c0bc 4827 0fbd a305 65bc
00000210: bca8 1ebd 1483 6f3d 32eb 22bd e94e 8a3d
00000220: e833 c03d 0ef2 6d3d 7b47 8b3c b9e3 adbd
00000230: 9af1 b4bc 44d0 c43d 7565 92bc 804f 573d
00000240: 8575 ae3d 3133 48bc c945 8ebd 12b1 3fbd
00000250: 466f 6e3c bdc3 27bd f2e2 e6bc e3e6 a53d
00000260: 2894 51bd f64c d9bd ef37 8c3d 8b9e 69bc
00000270: ff11 e33c 1a97 93bd a28e b1bd 9207 f63d
00000280: bdc3 823d 57f1 de3d c199 51bb 9ad9 a0bd
00000290: a806 4fbd 99c1 9f3d 9e3e 103e 4823 743d
000002a0: ada5 fdbd 5723 d73d bd6b 253e b30c cbbc
000002b0: 694c c539 7e2e d43c 9465 c0bd 7489 61bd
000002c0: a3ea c73d 7ccc cfbd e14d 9d3d 607e 80bd
000002d0: d687 0a3d 2751 84bd 04a4 083d 9a5c cc3d
000002e0: ef48 0f3c 8980 8dbd 513c 16bd c430 833d
000002f0: bcb2 2bbd 13f3 943d e2b6 583b 46bc 3bbd
00000300: f687 98bd 886e d63c 1c9f 733d b0a3 00be
00000310: 207e b33b 3b9c ac3d 1e7f d2bd 056d 60bd
00000320: 5635 02bd 6357 d7bc aec2 a53d f58b 8abd
00000330: 0f27 46bd f8e0 2bbd 294a 9ebd 26cb 22bd
00000340: 99a5 dbba bdb6 6cbc 13ba e1bb b187 943d
00000350: 8df2 013e e82d 703d 2f1e 96bd 9232 05bd
00000360: 10e1 6a3d 2b6e 623d 655f b73d f128 883d
00000370: 709a ac3c 74f4 993d 3a45 02bd 1ba6 ac3d
00000380: 9de7 c33c 8d6e 283d 99f8 e43d 57e7 6f3d
00000390: 0003 593c 549c ebbd ad30 dc3b b348 f7bd
000003a0: 6ccb 2f3d 150a 8fbd d8b7 83bd fb3a 883d
000003b0: 0bca 033e 4dce 6cbd f7ad 93bd 12ea 96bd
000003c0: 28f0 9b3d 90ca 26bb 7aa7 61bc 04b3 ac3d
000003d0: 2519 d83d 327f bfbd 1077 17be c897 febd
000003e0: 8d15 803a db22 243d ba96 e03d bd51 a63d
000003f0: 8e64 febd 6754 d13d ad98 b3bd 8ff1 2a3d

linear2.bias f4 [128]
0.09806564 0.01389777 0.05868931 0.059097078 0.0097798705 0.10107009 0.037817 0.063553944
0.003911798 -0.08236198 0.090665944 -0.06311637 -0.07075923 0.03425593 -0.09252764 -0.04112438
0.07274307 0.1024556 0.06907115 -0.055234075 0.08044254 -0.031111723 0.014436463 -0.020705646
0.054418504 0.0119455 0.11071714 -0.11368589 0.017892186 0.10989568 0.12584215 -0.10025683
-0.067766555 -0.0681916 0.041720748 0.051924914 0.098593794 0.07642932 0.01610733 -0.08418123
0.07230787 0.013699453 -0.11303556 0.10069607 0.016866015 0.0028637496 0.0106965415 -0.094908565
0.04330993 0.081166044 0.022190124 -0.03150402 -0.05156873 -0.011120644 0.08000591 -0.018682512
0.002000843 0.018315885 -0.000293713 -0.077307716 -0.016204089 0.06178096 -0.12479029 0.027138568
-0.06323449 0.08907619 -0.0008610367 0.102505706 0.06216178 -0.0011394589 -0.074171335 -0.12998298
-0.06693098 -0.047736324 0.025861025 0.15031551 0.032258436 0.06869611 -0.11814964 -0.062527515
0.08320518 -0.0026921593 0.10432615 0.07007237 -0.08417671 -0.105197154 0.08918358 0.056809224
-0.0578759 0.052020926 0.09171246 -0.08935216 0.050284047 -0.06485976 -0.01121123 0.10215898
-0.060992252 0.051044628 -0.050627142 0.12025276 -0.04691197 -0.07935517 -0.023060279 0.108959205
-0.06013201 -0.08546145 -0.09931181 -0.06946521 -0.0645865 -0.07417996 0.08629748 -0.02134866
-0.016640183 0.04606611 -0.12800802 0.021997057 0.06552622 0.079571605 -0.09418772 -0.09249378
-0.07945128 0.08451136 -0.12149871 -0.013425738 0.102787815 -0.018884193 0.11747101 -0.124704644
00000000: a3d6 c83d 79b3 633c 3464 703d c70f 723d
00000010: c03b 203c d6fd ce3d 00e6 1a3d 9228 823d
00000020: 8a2e 803b 66ad a8bd 11af b93d 2843 81bd
00000030: 37ea 90bd f24f 0c3d 227f bdbd 0a72 28bd
00000040: 52fa 943d 3ed4 d13d 2d75 8d3d 203d 62bd
00000050: 0fbf a43d 03de febc ea86 6c3c e39e a9bc
00000060: f0e5 5e3d 0fb7 433c abbf e23d 26d4 e8bd
00000070: a292 923c fc10 e13d c4dc 003e 7453 cdbd
00000080: 31c9 8abd 0aa8 8bbd 60e3 2a3d 38af 543d
00000090: 8beb c93d fa86 9c3d 85f3 833c 3567 acbd
000000a0: 2616 943d ac73 603c 307f e7bd be39 ce3d
000000b0: 992a 8a3c bfad 3b3b 8c40 2f3c 6c5f c2bd
000000c0: c165 313d 623a a63d 10c8 b53c 5c0a 01bd
000000d0: bc39 53bd 5d33 36bc 23da a33d 110c 99bc
000000e0: 9320 033b 320b 963c 7efd 99b9 8253 9ebd
000000f0: 70be 84bc 080e 7d3d 0d92 ffbd b451 de3c
00000100: 1681 81bd 946d b63d 32b7 61ba 83ee d13d
00000110: 5a9d 7e3d e559 95ba 24e7 97bd 421a 05be
00000120: 1c13 89bd 2a87 43bd 80da d33c 4fec 193e
00000130: 6c21 043d 8cb0 8c3d 70f8 f1bd 6d0e 80bd
00000140: 7a67 aa3d f06e 30bb f3a8 d53d 1a82 8f3d
00000150: d764 acbd 9b71 d7bd e1a5 b63d cab0 683d
00000160: 480f 6dbd e513 553d bed3 bb3d 44fe b6bd
00000170: a5f6 4d3d 32d5 84bd 4faf 37bc ba38 d13d
00000180: 03d3 79bd 2c14 513d 685e 4fbd 1447 f63d
00000190: c426 40bd f784 a2bd e9e8 bcbc 0126 df3d
000001a0: fc4c 76bd 6a06 afbd fe63 cbbd c743 8ebd
000001b0: ed45 84bd aaeb 97bd bcbc b03d 63e3 aebc
000001c0: fe50 88bc d1af 3c3d 8914 03be 2c33 b43c
000001d0: 9c32 863d 70f6 a23d 7ee5 c0bd 616d bdbd
000001e0: 5ab7 a2bd 4b14 ad3d 51d4 f8bd a0f7 5bbc
000001f0: 6b82 d23d 06b3 9abc a494 f03d 2665 ffbd

LSTM_layer_3.weight_ih_l0 f4 [256, 128]
-0.055773664 0.06936705 0.03440469 -0.00029082663 -0.08290051 0.113846995 -0.07568785 -0.1351557
-0.10476827 -0.14292394 0.045784455 0.10120171 0.053852957 -0.01873745 0.072132275 -0.024097392
0.018442295 0.017298914 -0.09829779 -0.062401373 -0.003995615 -0.0016830473 0.048662607 0.098337844
0.12463972 0.098919764 0.024667045 -0.07091083 0.089743644 0.029414937 -0.045916706 -0.05326429
-0.11004826 -0.020067705 -0.0411536 -0.06824309 0.030458009 -0.0786566 0.0074405745 0.081179276
0.1393466 0.010357041 -0.114767335 0.02837642 0.072704405 -0.07300771 0.036909707 -0.06726752
-0.07764897 0.030132636 -0.008645041 -0.05570805 0.009681627 -0.114354126 -0.10888086 -0.07617647
-0.06143384 0.108927995 0.07179343 0.09727418 -0.045672238 -0.029319867 -0.09700924 0.066757336
0.07412027 0.085675746 0.025897944 -0.10402556 -0.0060613966 -0.008814437 0.117114484 0.067886814
0.009632152 -0.050439134 -0.008604869 -0.07023861 0.116175294 0.05879398 -0.049232796 0.098196
-0.103846684 -0.0011558585 -0.072439514 -0.006906353 -0.040369023 -0.048707478 0.09785795 0.049433686
0.03171806 -0.10974059 -0.019010663 0.022797346 0.032010984 0.1014582 0.043016676 -0.119280435
-0.11456304 -0.09342432 0.0014035106 -0.09373018 0.017354764 0.026481029 0.15411624 -0.08507335
0.07412657 0.028066328 0.121812135 0.08418645 -0.08048756 -0.013168618 0.04194764 0.011724526
-0.10283749 -0.009960414 -0.015457496 0.1183656 -0.06986325 0.010315872 0.12237491 -0.025420563
-0.12182777 0.07532388 -0.017846264 0.090351194 0.06234312 0.06374465 -0.13500714 -0.094095305
-0.040296774 -0.026350567 0.009667423 0.12184439 -0.10804644 -0.002590588 0.10883035 -0.008465204
0.03118579 -0.0067530293 -0.083077215 -0.100194976 -0.10487977 -0.02563434 0.007574752 0.04792115
-0.006946898 0.13784449 0.004279596 0.08801902 0.046147507 -0.039794765 -0.08491904 -0.12643832
-0.043570247 -0.028901346 0.023350103 -0.018959463 -0.0046720025 0.08318341 0.038368225 0.058550164
0.020389007 0.06465005 0.07043894 -0.11670178 -0.044521026 0.1241876 0.039336305 -0.09293657
0.03470092 0.09323927 -0.01702932 -0.10679413 0.10247604 -0.037398867 -0.118601196 0.003722608
-0.092044994 -0.061587676 -0.08449556 0.0508745 -0.014472082 0.11850374 0.116886556 0.07463771
0.04370125 0.08973897 -0.12036044 0.031632744 0.008440912 0.014050141 -0.041724123 -0.01939818
0.083159685 -0.116689086 -0.055953056 0.05664834 -0.029392146 -0.05407571 0.10178329 0.06502607
0.114650466 -0.023692956 -0.11082165 0.047857776 -0.07610674 0.029645858 -0.0305776 0.056787353
-0.0799963 -0.10859817 -0.023206478 -0.053330112 0.059217125 0.035880808 -0.06970195 -0.010797626
0.012582704 -0.035962913 0.13496165 -0.009419344 0.007326414 -0.011352016 -0.034721427 0.1190968
0.10507487 -0.0947666 -0.11272307 0.0024861246 -0.13616896 0.103235476 -0.10178269 -0.13646752
-0.10879241 -0.123591 0.019433707 0.12775657 0.06977749 0.12016076 -0.15648483 -0.06532696
-0.064124376 0.07782133 0.03342673 -0.016503708 -0.04188661 0.13310358 0.11736858 0.017280413
-0.08531003 0.008988969 0.09707898 0.08462146 0.10561701 0.02488117 -0.020296145 -0.04524751
00000000: ed72 64bd 5010 8e3d efeb 0c3d 177a 98b9
00000010: bec7 a9bd 9d28 e93d 3b02 9bbd 4166 0abe
00000020: bf90 d6bd a75a 12be 7b88 3b3d d842 cf3d
00000030: eb94 5c3d 487f 99bc 16ba 933d e567 c5bc
00000040: 4c14 973c 74b6 8d3c 5a50 c9bd 9598 7fbd
00000050: a6ed 82bb b299 dcba 7152 473d 5a65 c93d
00000060: 1c43 ff3d 7296 ca3d 8b12 ca3c b239 91bd
00000070: 84cb b73d 98f7 f03c 2813 3cbd a82b 5abd
00000080: fb60 e1bd 0765 a4bc ad90 28bd 08c3 8bbd
00000090: 1383 f93c b616 a1bd 10d0 f33b 5241 a63d
000000a0: e0b0 0e3e 94b0 293c 230b ebbd aa75 e83c
000000b0: 0ce6 943d 1185 95bd a22e 173d 8ec3 89bd
000000c0: 6c06 9fbd b8d8 f63c eea3 0dbc 202e 64bd
000000d0: b09f 1e3c 7f32 eabd eefc debd 6902 9cbd
000000e0: 0da2 7bbd a415 df3d 6f08 933d af37 c73d
000000f0: d012 3bbd 3830 f0bc c8ac c6bd 12b8 883d
00000100: 5ecc 973d c476 af3d ed27 d43c 5a0b d5bd
00000110: ae9e c6bb 6e6a 10bc b8d9 ef3d 3e08 8b3d
00000120: 2cd0 1d3c 4499 4ebd 70fb 0cbc 43d9 8fbd
00000130: 50ed ed3d f5d1 703d 54a8 49bd fc1a c93d
00000140: 92ad d4bd 2d80 97ba 2b5b 94bd b04e e2bb
00000150: fd59 25bd 7e81 47bd c069 c83d fa7a 4a3d
00000160: ccea 013d adbf e0bd 40bc 9bbc 80c1 ba3c
00000170: f31d 033d 51c9 cf3d 4132 303d 4d49 f4bd
00000180: 07a0 eabd 4055 bfbd 00f6 b73a 9cf5 bfbd
00000190: 942b 8e3c beee d83c a6d0 1d3e f03a aebd
000001a0: accf 973d 5beb e53c a478 f93d f269 ac3d
000001b0: a9d6 a4bd 30c1 57bc 4ad1 2b3d 3a18 403c
000001c0: 769c d2bd 0131 23bc 7041 7dbc aa69 f23d
000001d0: 7714 8fbd e703 293c b29f fa3d c93e d0bc
000001e0: d680 f9bd 6843 9a3d 5432 92bc 0c0a b93d
000001f0: 805b 7f3d 8e8c 823d 503f 0abe 0ab5 c0bd
00000200: 3b0e 25bd 25dd d7bc 1c64 1e3c 8d89 f93d
00000210: 7447 ddbd dbc6 29bb 72e2 de3d a4b1 0abc
00000220: 5879 ff3c 8448 ddbb 6324 aabd 0633 cdbd
00000230: 34cb d6bd 1bff d1bc a035 f83b f848 443d
00000240: cea2 e3bb 1b27 0d3e da3b 8c3b 5143 b43d
00000250: 2b05 3d3d d6ff 22bd 09ea adbd 0c79 01be
00000260: b776 32bd 84c2 ecbc b748 bf3c e050 9bbc
00000270: 9917 99bb 105c aa3d 0028 1d3d 4cd2 6f3d
00000280: d906 a73c 3f67 843d 4a42 903d 5801 efbd
00000290: ae5b 36bd 1256 fe3d 1b1f 213d 8755 bebd
000002a0: 8d22 0e3d 3bf4 be3d 1381 8bbc e1b6 dabd
000002b0: f5de d13d 8e2f 19bd 2fe5 f2bd 00f7 733b
000002c0: 1682 bcbd 5c43 7cbd 020c adbd c861 503d
000002d0: 501c 6dbc 17b2 f23d 3862 ef3d a8db 983d
000002e0: 1500 333d 11c9 b73d 897f f6bd 5691 013d
000002f0: c04b 0a3c 9032 663c eae6 2abd efe8 9ebc
00000300: a04f aa3d b0fa eebd 082f 65bd 1708 683d
00000310: ccc7 f0bc 7e7e 5dbd c273 d03d 632c 853d
00000320: ddcd ea3d bb17 c2bc 76f6 e2bd 8406 443d
00000330: dadd 9bbd dfdb f23c e07d fabc db99 683d
00000340: 1ad5 a3bd b868 debd 831b bebc ad70 5abd
00000350: a88d 723d c1f7 123d e5bf 8ebd 87e8 30bc
00000360: b027 4e3c d94d 13bd 6333 0a3e 9853 1abc
00000370: 6a12 f03b cefd 39bc 0e38 0ebd 06e9 f33d
00000380: 7e31 d73d fe14 c2bd 5adb e6bd 40ee 223b
00000390: e06f 0bbe 1f6d d33d 7173 d0bd 24be 0bbe
000003a0: 8ece debd 471d fdbd 7033 9f3c 9ed2 023e
000003b0: 80e7 8e3d d816 f63d 8f3d 20be 24ca 85bd
000003c0: a453 83bd ca60 9f3d 78ea 083d c932 87bc
000003d0: 4b91 2bbd 4e4c 083e f05e f03d a78f 8d3c
000003e0: 06b7 aebd 7846 133c 58d1 c63d 044e ad3d
000003f0: bb4d d83d 98d3 cb3c 1a44 a6bc 7455 39bd

LSTM_layer_3.weight_hh_l0 f4 [256, 64]
-0.110546544 0.100867316 -0.043436468 0.046513304 0.042885467 0.09433475 0.0888405 0.054879874
-0.002098143 -0.10550548 0.096108615 0.057602942 0.08352728 0.006480083 -0.09589204 0.11019461
0.059262007 0.0050693303 0.097764224 -0.037926078 0.034977093 0.04114589 -8.061528e-05 -0.07243726
-0.09722957 -0.0761224 0.11663765 0.017685533 0.06885898 0.05317104 -0.0067665875 -0.007916078
0.020455718 -0.019366547 -0.06083776 -0.092635155 0.062272653 -0.047128394 -0.06857139 0.09344691
0.011286512 0.014645636 0.04702775 -0.049667984 0.12177849 0.06044531 0.05809866 -0.010104775
0.08434832 -0.10616143 0.039325655 0.043920875 -0.06963867 -0.033254728 -0.008425146 0.039891437
-0.0688207 0.03936851 0.01162456 -0.09006229 -0.078730226 0.0878308 -0.11921869 -0.083595976
-0.015022367 -0.04014997 -0.11831863 -0.061026573 -0.07940678 -0.11085683 -0.12395361 0.10715586
-0.069937795 0.10118884 0.007180795 -0.035523847 0.035849705 0.0047004223 0.10085608 0.034499377
0.1043755 -0.12284182 -0.044721335 -0.032709554 0.06843746 -0.033728167 0.0027672797 -0.0031736493
-0.054347888 -0.060429275 -0.04162 -0.014111981 0.091795504 -0.04349342 0.056903347 -0.017839223
-0.11267415 -0.10720171 -0.022192985 -0.016244397 -0.090066195 -0.058839098 -0.11781317 -0.06984314
-0.06702313 0.08055565 -0.11658774 -0.0884697 0.115716934 0.017752498 0.09044035 -0.08518855
0.020706788 0.076814234 0.027591392 -0.021773502 0.018188387 -0.07089344 0.006877601 -0.03380412
-0.006282106 0.047642797 -0.11808956 -0.019204393 -0.09803161 0.08277963 -0.07690674 0.06859748
0.07607333 0.063288495 -0.09025717 -0.10024157 0.029506326 -0.10467446 -0.006245762 0.04521641
0.07763255 -0.09030257 -0.068571925 -0.10569702 -0.12393266 -0.014459878 -0.106984824 0.0017446578
-0.041989982 0.016235381 -0.036179215 0.03596513 0.038427457 0.04398516 0.048257947 0.0517025
-0.009247184 0.11363262 -0.049301267 -0.031711116 0.037156567 0.017723054 -0.014400765 -0.076389685
-0.10317078 0.025286287 0.06571363 0.091427475 -0.034238845 -0.079934016 -0.097347096 0.0698884
0.10525231 -0.073089406 0.096023455 -0.11937934 0.011242837 -0.03376311 0.085516706 0.07192017
-0.020315304 -0.045957506 0.02942063 -0.10849488 -0.035914168 0.12052253 -0.09374313 0.08273268
-0.09544586 0.11672172 0.08703038 0.0027149618 0.021337405 0.097873926 0.037782475 -0.08364804
-0.06320976 0.10051103 -0.027528226 0.09879002 0.054120436 0.111458525 0.11139178 0.08023104
-0.12453511 0.066232875 0.11533263 -0.019576967 0.031239301 -0.11720841 -0.0978335 0.0013066232
0.008216172 -0.040438443 -0.057560056 0.06321819 0.08507432 0.114278525 -0.084929496 0.099165335
0.10485016 -0.04281044 0.015936375 0.07051833 0.11166583 0.08752538 -0.11691359 -0.11027862
0.010459527 -0.09008849 0.09695333 -0.06825459 0.11649783 -0.06049986 0.06126158 -0.082973495
0.111504 -0.06592098 -0.08270915 -0.00066773593 0.05901502 -0.051653534 0.009226039 -0.08020745
-0.043437734 0.052458897 -0.024490476 -0.10496104 0.08813293 0.05388403 -0.10289243 -0.034520805
-0.077704445 -0.08131604 -0.10207453 -0.03342095 -0.11779247 -0.09328391 0.01023002 0.0069196224
00000000: 3a66 e2bd 8693 ce3d 70ea 31bd bc84 3e3d
00000010: aca8 2f3d 9432 c13d 02f2 b53d b8c9 603d
00000020: 0081 09bb 4213 d8bd 98d4 c43d 10f1 6b3d
00000030: 5a10 ab3d e056 d43b 0c63 c4bd b6ad e13d
00000040: b8bc 723d a01c a63b 9c38 c83d 6058 1bbd
00000050: 2444 0f3d 9888 283d 0010 a9b8 fc59 94bd
00000060: 4c20 c7bd 10e6 9bbd b8df ee3d 40e1 903c
00000070: f005 8d3d e0c9 593d 40ba ddbb 70b2 01bc
00000080: c092 a73c 98a6 9ebc 0431 79bd 80b7 bdbd
00000090: 9c11 7f3d b409 41bd 286f 8cbd 1861 bf3d
000000a0: 10eb 383c 40f4 6f3c 2ca0 403d a870 4bbd
000000b0: 0067 f93d 8095 773d dcf8 6d3d 808e 25bc
000000c0: d0be ac3d 2a6b d9bd f013 213d 60e6 333d
000000d0: b89e 8ebd 1c36 08bd a009 0abc 3465 233d
000000e0: def1 8cbd e040 213d f074 3e3c 9472 b8bd
000000f0: 503d a1bd a2e0 b33d ee28 f4bd 5e34 abbd
00000100: 6020 76bc 4c74 24bd 0a51 f2bd 00f7 79bd
00000110: 06a0 a2bd e808 e3bd 64db fdbd 8874 db3d
00000120: 8c3b 8fbd 183c cf3d e04c eb3b 7481 11bd
00000130: 24d7 123d 0006 9a3b a28d ce3d 384f 0d3d
00000140: d2c2 d53d 7e94 fbbd b82d 37bd 74fa 05bd
00000150: f028 8c3d 8c26 0abd 405b 353b 00fd 4fbb
00000160: e49b 5ebd b084 77bd bc79 2abd f035 67bc
00000170: 48ff bb3d 2826 32bd 7c13 693d 9023 92bc
00000180: b4c1 e6bd 928c dbbd 10ce b5bc f812 85bc
00000190: a074 b8bd 4401 71bd 0848 f1bd ec09 8fbd
000001a0: 6c43 89bd 5cfa a43d 8ec5 eebd 9a2f b5bd
000001b0: 00fd ec3d b06d 913c ca38 b93d 5677 aebd
000001c0: 48a1 a93c c850 9d3d 5807 e23c 585e b2bc
000001d0: d0ff 943c 9430 91bd 805d e13b 3076 0abd
000001e0: 20da cdbb 1825 433d f0d8 f1bd 8852 9dbc
000001f0: ccc4 c8bd 5e88 a93d 4881 9dbd d67c 8c3d
00000200: 56cc 9b3d 669d 813d c0d8 b8bd 744b cdbd
00000210: 40b7 f13c 905f d6bd 40a9 ccbb d834 393d
00000220: d0fd 9e3d 8ef0 b8bd 706f 8cbd ae77 d8bd
00000230: 68d0 fdbd 20e9 6cbc dc1a dbbd 00ad e43a
00000240: b0fd 2bbd 1000 853c a830 14bd 2c50 133d
00000250: 1c66 1d3d c829 343d 20aa 453d 00c6 533d
00000260: 8081 17bc 38b8 e83d 20f0 49bd 84e3 01bd
00000270: 7c31 183d f02f 913c 30f1 6bbc 3272 9cbd
00000280: 344b d3bd 3025 cf3c de94 863d 543e bb3d
00000290: 083e 0cbd 72b4 a3bd ea5d c7bd a621 8f3d
000002a0: 868e d73d e6af 95bd f2a7 c43d 287d f4bd
000002b0: e033 383c 304b 0abd 6223 af3d e24a 933d
000002c0: 486c a6bc f03d 3cbd 8803 f13c 9032 debd
000002d0: bc1a 13bd 84d4 f63d 66fc bfbd c06f a93d
000002e0: 1e79 c3bd cc0b ef3d fc3c b23d 80ed 313b
000002f0: c8cb ae3c 2072 c83d ccc1 1a3d aa4f abbd
00000300: 1e74 81bd bad8 cd3d e082 e1bc 6c52 ca3d
00000310: 64ad 5d3d 5e44 e43d 6021 e43d 2c50 a43d
00000320: 440c ffbd 1aa5 873d 8433 ec3d e05f a0bc
00000330: 90e9 ff3c f60a f0bd ee5c c8bd 0043 ab3a
00000340: 209d 063c c8a2 25bd 18c4 6bbd 8a78 813d
00000350: 723b ae3d dc0a ea3d 84ef adbd 3217 cb3d
00000360: aebb d63d 005a 2fbd 008d 823c ea6b 903d
00000370: 0eb1 e43d 8240 b33d 6470 efbd c2d9 e1bd
00000380: 705e 2b3c 5080 b8bd 788f c63d 10c9 8bbd
00000390: 6a96 ee3d b4ce 77bd 6ced 7a3d 02ee a9bd
000003a0: 365c e43d 9401 87bd 6a63 a9bd 000b 2fba
000003b0: bcb9 713d a892 53bd d028 173c ce43 a4bd
000003c0: c4eb 31bd 24df 563d 40a0 c8bc d0f5 d6bd
000003d0: 0a7f b43d 80b5 5c3d 44b9 d2bd b065 0dbd
000003e0: 8223 9fbd 0689 a6bd 740c d1bd 68e4 08bd
000003f0: 2e3d f1bd a20b bfbd d09b 273c 00be e23b

LSTM_layer_3.bias_ih_l0 f4 [256]
0.08072995 -0.13241686 0.02547499 -0.058545552 0.09990067 0.013915541 -0.058356598 -0.10208595
-0.0065556075 -0.06464182 0.07767867 -0.018247388 0.13027853 -0.06541558 -0.042484768 0.067349926
0.022200951 -0.07383675 -0.020584151 0.07518215 0.1646722 0.017093452 0.08281045 0.027558064
-0.11475123 0.009704032 0.023041364 0.11208498 -0.058195457 -0.03562307 0.09298408 0.043469384
0.06940817 -0.051318046 0.037582327 -0.109999076 -0.09152041 0.06075493 0.02138951 0.11542033
-0.0022449673 -0.0070043635 -0.019072741 0.1117016 -0.12887485 0.07730505 0.07631857 -0.025453314
0.02071917 0.022254933 0.109948054 0.0054282253 0.026115745 -0.12486258 0.076670274 -0.041049164
0.07263578 0.16187611 -0.020256061 -0.045689538 0.07312092 -0.068705454 -0.1279992 -0.07775609
0.123667866 0.058795556 -0.06715116 -0.0031387955 -0.007137373 -0.014575362 0.112154365 -0.024081066
-0.08857222 0.09361909 0.0042275935 0.025856003 0.09165366 -0.07130705 0.0004595369 0.052313283
0.036927447 0.11335057 -0.08593394 0.03260614 -0.031636447 -0.053356573 0.029609606 0.10344577
0.030790582 0.12395847 0.10930166 0.11281341 0.0039984286 -0.09146924 -0.008030772 0.113518804
0.07635568 0.042966932 -0.12011798 0.034220815 0.040788457 -0.08454479 -0.07384452 0.07435383
-0.04257594 -0.112841815 -0.014641434 0.022349358 -0.11022131 0.046446025 0.09689653 0.031575978
-0.080080256 -0.11147076 -0.062060103 -0.08044909 0.111601084 -0.054505184 -0.04847914 0.06844564
0.019608483 0.11157231 0.074193805 0.123944655 -0.11538845 0.050146088 -0.0195854 -0.005598992
0.061595924 0.09373117 -0.045451965 -0.010350467 0.069148734 -0.13293374 0.106121175 -0.089760214
-0.07322184 -0.022417685 0.048111312 -0.091736294 0.12438852 0.11706299 -0.061049346 0.02374958
-0.080996774 -0.08563623 -0.050438065 0.023655744 0.12345883 -0.019991772 -0.046187643 0.09514176
0.11354305 -0.0026572803 0.035585374 0.0009917265 0.08938141 -0.04128339 -0.08142781 0.033641227
0.06726161 0.029659128 -0.08575755 -0.12161906 -0.0663124 0.0676526 0.014706001 -0.14008985
-0.09943862 0.105351776 -0.069550835 -0.030904526 -0.10865191 -0.043779325 -0.05093841 -0.04652737
0.0012765832 0.07118946 -0.01978973 0.05325329 -0.11816253 0.09289467 0.116426975 0.107761554
0.08031711 -0.01306687 -0.07300641 -0.10575621 -0.01833368 0.11102458 -0.016711203 -0.001260846
0.096718825 0.023420893 -0.031967074 0.08386991 -0.09689155 0.097049154 0.007917161 -0.015248099
-0.036413167 0.13844573 0.1441039 -0.058064934 -0.08061585 0.09616608 0.06166095 0.048622075
0.0075899824 -0.0903762 0.025808476 -0.12879494 0.04973831 -0.083550274 -0.074913055 -0.03916852
0.0396454 0.088630095 -0.06692598 -0.10234797 0.09792494 0.07218102 -0.07559959 -0.076175794
0.1473698 0.13416518 0.010047912 0.055344578 0.009302378 0.031680975 0.11794372 -0.06627088
-0.020979432 0.10744356 0.027883152 0.08249353 -0.08217251 0.10309643 0.0005022986 0.10401478
-0.10690959 0.074724615 -0.008330237 0.121334806 -0.029700877 -0.1522219 -0.123084486 -0.038061634
0.09749922 0.0902654 -0.06928102 -0.05772582 -0.018692149 -0.025974395 -0.093791984 -0.027244013
00000000: be55 a53d 4998 07be edb0 d03c 76cd 6fbd
00000010: b998 cc3d 02fe 633c 5407 6fbd 7012 d1bd
00000020: 6cd0 d6bb ee62 84bd ff15 9f3d 8c7b 95bc
00000030: bc67 053e 9bf8 85bd 8204 2ebd c2ee 893d
00000040: c5de b53c b937 97bd 18a0 a8bc 19f9 993d
00000050: d49f 283e 9107 8c3c 8698 a93d 73c1 e13c
00000060: b102 ebbd a9fd 1e3c 3ec1 bc3c cf8c e53d
00000070: 5c5e 6ebd 7fe9 11bd 706e be3d f40c 323d
00000080: df25 8e3d df32 52bd edef 193d 3247 e1bd
00000090: 0d6f bbbd 29da 783d 0e39 af3c 7e61 ec3d
000000a0: 4d20 13bb dc84 e5bb 703e 9cbc cfc3 e43d
000000b0: c5f7 03be 1c52 9e3d e94c 9c3d 7883 d0bc
000000c0: 40bb a93c fa4f b63c 722c e13d 41df b13b
000000d0: b0f0 d53c f4b7 ffbd 4e05 9d3d 2b23 28bd
000000e0: 11c2 943d dac2 253e 0af0 a5bc f424 3bbd
000000f0: 6cc0 953d 72b5 8cbd 3912 03be 963e 9fbd
00000100: 9445 fd3d 9cd3 703d 8c86 89bd 40b4 4dbb
00000110: a0e0 e9bb 80cd 6ebc 30b1 e53d a845 c5bc
00000120: 5a65 b5bd 5ebb bf3d a087 8a3b f8cf d33c
00000130: eab4 bb3d 6e09 92bd 00ee f039 7446 563d
00000140: 3c41 173d 5824 e83d 22fe afbd 048e 053d
00000150: 3895 01bd 6c8c 5abd d88f f23c 60db d33d
00000160: 883c fc3c f0dd fd3d 8cd9 df3d b80a e73d
00000170: 4005 833b 3a54 bbbd 8093 03bc 8c7c e83d
00000180: 5e60 9c3d 18fe 2f3d 6a00 f6bd 202b 0c3d
00000190: cc11 273d d225 adbd cc3b 97bd d246 983d
000001a0: 1c64 2ebd 9c19 e7bd a0e2 6fbc 0016 b73c
000001b0: b6bb e1bd 303e 3e3d b071 c63d d055 013d
000001c0: 1e01 a4bd c84a e4bd bc32 7ebd 7ec2 a4bd
000001d0: 1c8f e43d d440 5fbd 1092 46bd 3a2d 8c3d
000001e0: f8a1 a03c 0680 e43d ecf2 973d b2d6 fd3d
000001f0: c850 ecbd fc65 4d3d 9071 a0bc c077 b7bb
00000200: 024c 7c3d 21f6 bf3d d72b 3abd 0195 29bc
00000210: da9d 8d3d c81f 08be 0f56 d93d 34d4 b7bd
00000220: 55f5 95bd 4ba5 b7bc 5e10 453d 3de0 bbbd
00000230: 69bf fe3d b9be ef3d e10e 7abd 7b8e c23c
00000240: a3e1 a5bd 0c62 afbd 2598 4ebd b1c9 c13c
00000250: fcd7 fc3d c9c5 a3bc 412f 3dbd afd9 c23d
00000260: 4289 e83d c425 2ebb f8c1 113d d2fc 813a
00000270: 9a0d b73d c618 29bd a0c3 a6bd 62cb 093d
00000280: 74c0 893d b3f7 f23c a8a1 afbd 6a13 f9bd
00000290: ccce 87bd 728d 8a3d 70f1 703c b773 0fbe
000002a0: 7aa6 cbbd acc2 d73d ab70 8ebd 7d2b fdbc
000002b0: e584 debd f351 33bd cba4 50bd 7c93 3ebd
000002c0: 0653 a73a c8cb 913d 121e a2bc 1f20 5a3d
000002d0: 32ff f1bd 903f be3d 4471 ee3d 17b2 dc3d
000002e0: 4c7d a43d 6d16 56bc 6284 95bd b696 d8bd
000002f0: 8430 96bc db60 e33d efe5 88bc f942 a5ba
00000300: 8514 c63d 2cdd bf3c e8ef 02bd fdc3 ab3d
00000310: 146f c6bd b5c1 c63d fbb6 013c 2ad3 79bc
00000320: f925 15bd b8c4 0d3e f98f 133e 7fd5 6dbd
00000330: ec19 a5bd b9f2 c43d 3190 7c3d f127 473d
00000340: 63b5 f83b 2817 b9bd 4c6c d33c d2e2 03be
00000350: 66ba 4b3d 681c abbd 046c 99bd 2c6f 20bd
00000360: 3763 223d b283 b53d 7d10 89bd d09b d1bd
00000370: df8c c83d a5d3 933d f5d3 9abd 0e02 9cbd
00000380: 1ce8 163e 9962 093e ff9f 243c ffb0 623d
00000390: 0069 183c e9c3 013d 7a8c f13d 07b9 87bd
000003a0: 0fdd abbc 5f0b dc3d 356b e43c 5ef2 a83d
000003b0: 104a a8bd 3924 d33d b0ac 033a b305 d53d
000003c0: 6af3 dabd 3809 993d 8c7b 08bc 627e f83d
000003d0: 414f f3bc 0fe0 1bbe b813 fcbd 84e6 1bbd
000003e0: acad c73d 11dd b83d 35e3 8dbd e971 6cbd
000003f0: 4720 99bc 41c8 d4bc 0316 c0bd d62e dfbc

LSTM_layer_3.bias_hh_l0 f4 [256]
0.08501354 0.06563381 0.083535984 0.0023065305 0.067288406 -0.006653247 0.05455685 0.11660454
-0.032749288 0.01855548 0.042600203 0.02510214 -0.0898707 0.09756162 -0.018062111 0.1324663
-0.007941922 0.09631277 0.039343257 -0.0003560281 -0.00578545 -0.013356819 0.035711955 -0.029630737
-0.055220366 -0.08869829 -0.1032324 0.0391781 -0.0033186993 -0.09958639 -0.07729234 -0.0459932
0.021840168 -0.014663569 0.018545011 -0.104524136 0.03305158 -0.08987714 -0.047399092 0.012385741
-0.114771836 0.07014034 -0.08107135 0.10675231 0.067534775 -0.076362014 0.08945618 -0.012074361
-0.043879654 0.10322502 0.095669955 -0.08616812 0.045195445 0.023796678 0.043050278 -0.09060483
-0.024694417 0.17644902 -0.08240458 0.07424345 0.069484115 0.12893215 -0.06663177 -0.06668636
0.077513024 -0.0063277185 -0.0008292794 0.069309115 0.027219668 -0.105010435 -0.014500633 -0.042505667
0.11631155 0.08263779 -0.015357748 0.0039604455 0.017356396 0.007898897 -0.021043986 0.11032054
-0.085454315 -0.018170953 0.11983083 -0.12360218 -0.11987533 -0.06617284 0.02941139 0.09332509
0.10219638 0.004960954 0.08836986 0.10421011 0.11431593 0.06410852 0.07184227 0.072111994
-0.10944587 -0.033819333 0.060946107 0.071609855 -0.04724431 -0.055608466 -0.07158238 -0.03823322
0.074523196 -0.09874493 -0.058656186 -0.12053996 -0.11166659 0.088745 -0.041201934 0.08570281
0.058906496 -0.028499365 -0.06441966 -0.06580204 0.074936345 0.04872814 0.004826665 -0.050079778
0.033216223 0.09571095 0.10652557 -0.008851334 -0.08722611 -0.015075326 0.038254857 0.07046284
0.023511024 0.0012476423 0.013359208 0.0461947 -0.07345313 0.073962115 -0.11660773 -0.06640998
-0.11305633 0.09415135 -0.100514986 -0.07519605 -0.043295782 -0.041520085 0.019725762 -0.0313528
0.04220465 -0.108169004 0.005027757 0.004661383 -0.011342114 -0.11989694 -0.0473032 0.059522454
0.009895934 -0.12430831 -0.0458961 0.07950291 -0.035083067 0.04843076 -0.06947384 0.080046505
0.00782487 -0.037187107 -0.016715977 -0.085461624 0.04249544 -0.052206166 -0.029487574 -0.15277946
-0.083025925 -0.015356569 0.14184862 -0.0039406535 -0.11009077 -0.118640855 -0.02419021 -0.0520967
0.05159275 0.010611961 0.10718149 0.08043002 0.038209945 0.08054553 -0.11169179 -0.06107333
0.01119594 -0.07373702 0.05946217 0.066162735 -0.12140771 -0.047819518 -0.037114643 0.055657014
-0.029434685 -0.052210897 -0.033435818 -0.10780356 0.035524763 0.015593556 -0.0466653 -0.051209033
-0.04114538 -0.006958617 -0.06877251 -0.082207344 -0.10319542 -0.12319944 0.008999399 -0.046807244
0.11038673 -0.030584376 0.016689248 0.09610516 0.05272543 0.14144132 -0.0672788 0.07637267
-0.06700107 0.04339466 -0.034769814 0.1204733 -0.07848236 0.05912255 -0.052227736 -0.09652019
0.071927644 0.036352046 0.044742312 0.084074944 -0.009099168 -0.07449192 0.0059244176 0.044215035
-0.05302111 -0.059303135 -0.12414115 -0.07154844 -0.1272536 0.06921665 -0.038162723 0.04328337
0.074577264 -0.05527401 -0.045359846 0.06651227 -0.12400874 -0.13624051 0.055853546 -0.031504806
0.13723387 -0.03352868 -0.11139438 -0.008499191 -0.011603085 0.05252361 0.07780842 -0.09761038
00000000: 941b ae3d 056b 863d ea14 ab3d 2929 173b
00000010: 81ce 893d 7b03 dabb 0177 5f3d 5cce ee3d
00000020: 1e24 06bd a901 983c 8d7d 2e3d 01a3 cd3c
00000030: 210e b8bd 63ce c73d fef6 93bc 3fa5 073e
00000040: d61e 02bc a13f c53d 6526 213d 48a9 bab9
00000050: df93 bdbb 8fd6 5abc b346 123d 29bc f2bc
00000060: c02e 62bd 73a7 b5bd 826b d3bd 3779 203d
00000070: 897e 59bb f3f3 cbbd 724b 9ebd 5e63 3cbd
00000080: 27ea b23c 773f 70bc b5eb 973c c010 d6bd
00000090: 1861 073d 8211 b8bd 8d25 42bd 90ed 4a3c
000000a0: 7f0d ebbd bda5 8f3d bc08 a6bd f5a0 da3d
000000b0: ac4f 8a3d b063 9cbd cd34 b73d 8ad3 45bc
000000c0: 27bb 33bd a467 d33d 9cee c33d e978 b0bd
000000d0: dc1e 393d 40f1 c23c 7d55 303d 068f b9bd
000000e0: f24b cabc 0daf 343e bcc3 a8bd f30c 983d
000000f0: b04d 8e3d ca06 043e 3d76 88bd dc92 88bd
00000100: 26bf 9e3d c058 cfbb 0064 59ba f0f1 8d3d
00000110: c8fb de3c b60f d7bd 1094 6dbc 6c1a 2ebd
00000120: c034 ee3d 003e a93d 109f 7bbc a0c6 813b
00000130: 002f 8e3c 606a 013c 7064 acbc bcef e13d
00000140: ac02 afbd 40db 94bc de69 f53d 2423 fdbd
00000150: 3281 f5bd a085 87bd 28f0 f03c 3a21 bf3d
00000160: 564c d13d 808f a23b 42fb b43d 1c6c d53d
00000170: 781e ea3d 544b 833d 0a22 933d 74af 933d
00000180: 2825 e0bd 2486 0abd a0a2 793d 30a8 923d
00000190: 4083 41bd b4c5 63bd c899 92bd 709a 1cbd
000001a0: 9e9f 983d c83a cabd 7841 70bd a8dd f6bd
000001b0: 74b1 e4bd f0bf b53d 5cc3 28bd f484 af3d
000001c0: f047 713d 8077 e9bc 74ee 83bd 38c3 86bd
000001d0: 3a78 993d 2897 473d 0029 9e3b 7420 4dbd
000001e0: bc0d 083d 1a04 c43d 142a da3d 3005 11bc
000001f0: 9aa3 b2bd 80fe 76bc 20b1 1c3d d24e 903d
00000200: 319a c03c ee87 a33a 94e0 5a3c a736 3d3d
00000210: 986e 96bd 7379 973d 09d0 eebd f501 88bd
00000220: 148a e7bd 6cd2 c03d cdda cdbd 6300 9abd
00000230: eb56 31bd f710 2abd ec97 a13c cb6b 00bd
00000240: c8de 2c3d b687 ddbd e2bf a43b 84be 983b
00000250: 46d4 39bc 878c f5bd 00c1 41bd d1cd 733d
00000260: 8e22 223c 5b95 febd 8dfd 3bbd 6cd2 a23d
00000270: 43b3 0fbd 555f 463d 4d48 8ebd 6cef a33d
00000280: e233 003c 8251 18bd f2ef 88bc 8106 afbd
00000290: b30f 2e3d 22d6 55bd ed8f f1bc 3872 1cbe
000002a0: 7f09 aabd 1e9a 7bbc c440 113e 9920 81bb
000002b0: 4577 e1bd faf9 f2bd 8c2a c6bc 5963 55bd
000002c0: eb52 533d cadd 2d3c f881 db3d 7fb8 a43d
000002d0: 0882 1c3d 0ef5 a43d aabe e4bd 0728 7abd
000002e0: 2d6f 373c 6f03 97bd 9b8e 733d 5480 873d
000002f0: 9ba4 f8bd 66de 43bd 8605 18bd 9cf8 633d
00000300: 0221 f1bc 18db 55bd fff3 08bd 1dc8 dcbd
00000310: 6a82 113d 1d7c 7f3c 1d24 3fbd 90c0 51bd
00000320: 0f88 28bd 1c05 e4bb 9ad8 8cbd 535c a8bd
00000330: 1f58 d3bd fd4f fcbd 3772 133c f4b8 3fbd
00000340: 7012 e23d 168c fabc e4b7 883c c8d2 c43d
00000350: 9ff6 573d fed5 103e 78c9 89bd 4669 9c3d
00000360: db37 89bd 99be 313d cb6a 0ebd b5ba f63d
00000370: 5cbb a0bd 7d2a 723d c0ec 55bd 61ac c5bd
00000380: cd4e 933d e2e5 143d b743 373d 7c2f ac3d
00000390: ad14 15bc 388f 98bd 9e21 c23b d31a 353d
000003a0: aa2c 59bd d8e7 72bd b73d febd fd87 92bd
000003b0: c54e 02be 76c1 8d3d 8450 1cbd e749 313d
000003c0: f7bb 983d 0067 62bd 3fcb 39bd 9637 883d
000003d0: 4bf8 fdbd a282 0bbe b0c6 643d 2f0b 01bd
000003e0: 0987 0c3e 5f55 09bd bd22 e4bd 3140 0bbc
000003f0: de1a 3ebc ff22 573d 055a 9f3d f3e7 c7bd

linear4.weight f4 [32, 64]
0.022454068 0.045871116 -0.09672255 -0.031009454 -0.060677152 0.12214211 -0.044059623 -0.0024120368
0.07469297 -0.11371418 -0.035961438 -0.09100661 -0.122019 -0.07965181 0.05004888 -0.09510201
0.08969132 -0.08994009 -0.099430904 -0.01504808 -0.11922195 0.098368056 0.036916148 0.0815069
-0.09795193 -0.03484184 -0.081154756 -0.11629439 -0.023131391 -0.07750566 0.020351635 0.03569173
-0.08856893 -0.09425193 0.033524297 0.11792563 0.06636741 0.030906659 -0.033486657 -0.011802219
-0.017342964 -0.017688436 0.09814152 -0.05863391 -0.05690558 0.050558615 -0.062305916 0.010292692
0.06353586 0.021915158 0.10666667 -0.047646347 -0.09465088 -0.09553582 0.05619776 0.060050376
0.014466359 -0.08011966 -0.08042859 -0.11332078 0.08672252 0.059122153 -0.11714345 0.02086898
0.0049997414 -0.038746793 0.13283637 0.032761667 -0.06843427 0.029716289 -0.088309065 -0.036118407
-0.048918247 0.06105699 -0.09629886 0.104172006 0.046271216 0.0967326 -0.10866364 0.0058355434
0.119003505 -0.0038048653 0.08582997 -0.03612607 -0.006764734 0.13299455 -0.030472122 -0.12569201
-0.11440156 0.120583154 -0.0888294 0.022198707 -0.040962495 -0.030179625 -0.09377662 0.006837295
0.10447132 -0.0032816853 -0.039265815 -0.024856495 -0.11577389 0.012994941 -0.07067017 0.084991366
-0.011202498 0.11630264 -0.114896625 0.055777065 -0.09615894 0.14195018 0.08260917 0.089557275
-0.005314723 -0.082574844 -0.092416465 0.104623884 0.059730563 -0.10216467 -0.061805423 -0.13546546
-0.0025386473 0.11070703 -0.073981866 -0.04101196 -0.14180645 0.025394639 -0.060087338 0.05410926
0.12710814 0.022284428 0.037118804 0.098988 -0.11123989 0.112078786 -0.11450566 0.1204205
-0.12886293 -0.107896 0.04010644 -0.09769541 -0.008163148 0.11519235 -0.12818363 -0.11586493
0.041562423 -0.012267925 -0.09692802 0.0881529 0.01230529 0.05614964 0.03550376 0.05875229
-0.11042951 -0.04696409 -0.014036077 0.0033021455 0.0072425473 0.10730486 -0.11575967 -0.014067341
0.029146574 0.112078674 -0.008633908 -0.096365206 0.057228114 0.06943427 0.00937834 -0.10600466
0.091468886 -0.11647035 0.06016303 0.11143084 0.10674349 0.0667548 0.013247836 0.087657616
0.08658472 -0.044188537 0.030815938 0.10052593 0.07027198 0.117515855 0.008482482 -0.047772564
-0.07191795 0.095503084 -0.10424767 0.022709573 -0.106869586 -0.019675678 0.051463153 0.035679344
0.043913398 0.1015039 -0.015998593 -0.010718623 0.05837748 -0.036418546 -0.06302391 0.12751131
0.09314815 0.10076051 -0.08831593 0.13097703 -0.030376658 0.06278952 -0.0921525 -0.018654272
0.09344529 -0.12308227 0.12231523 0.08854042 -0.09395686 -0.0024671846 -0.03247091 0.033089098
-0.101836905 0.055325285 -0.10562221 -0.08416049 0.047764793 0.118823044 0.031398017 0.029594686
0.10883185 -0.014848979 -0.024558662 -0.071457945 -0.08071978 -0.041485548 -0.10747264 0.05733139
0.10430912 -0.05965742 0.09353084 -0.0731794 0.0015310318 0.098444395 -0.07325639 0.06427117
0.08374974 -0.10385027 -0.050657574 0.0713176 0.012492898 -0.04110121 0.07426087 -0.052835193
-0.034742173 -0.038093098 0.06273679 0.055497292 0.030695358 -0.10280388 -0.09274455 0.04767883
00000000: 98f1 b73c 5ae3 3b3d 7916 c6bd 8a07 febc
00000010: 9b88 78bd a425 fa3d dd77 34bd 4313 1ebb
00000020: a1f8 983d fbe2 e8bd 4d4c 13bd ac61 babd
00000030: 19e5 f9bd 7d20 a3bd 0e00 4d3d d8c4 c2bd
00000040: 15b0 b73d 8332 b8bd 6ea2 cbbd 398c 76bc
00000050: a32a f4bd 3175 c93d 6335 173d 17ed a63d
00000060: 059b c8bd 51b6 0ebd 7734 a6bd c12b eebd
00000070: 0b7e bdbc 4abb 9ebd 79b8 a63c 7e31 123d
00000080: a163 b5bd 2807 c1bd c650 093d fe82 f13d
00000090: a3eb 873d f62f fd3c 4e29 09bd 185e 41bc
000000a0: d512 8ebc 57e7 90bc 6cfe c83d 1c2a 70bd
000000b0: d315 69bd 8d16 4f3d 7d34 7fbd aea2 283c
000000c0: 171f 823d 6b87 b33c 0e74 da3d d128 43bd
000000d0: 52d8 c1bd 49a8 c3bd 9f2f 663d 62f7 753d
000000e0: 4f04 6d3c c715 a4bd bfb7 a4bd ba14 e8bd
000000f0: 949b b13d 122a 723d e8e8 efbd 6cf5 aa3c
00000100: dfd4 a33b f5b4 1ebd 4206 083e 1931 063d
00000110: 4427 8cbd 936f f33c 62db b4bd e5f0 13bd
00000120: 805e 48bd e516 7a3d 5638 c5bd 2258 d53d
00000130: e386 3d3d be1b c63d 0b8b debd 1638 bf3b
00000140: 1cb8 f33d 0c5b 79bb a0c7 af3d eef8 13bd
00000150: b4aa ddbb b92f 083e aca0 f9bc 68b5 00be
00000160: 5d4b eabd 4df4 f63d 30ec b5bd 10da b53c
00000170: 4ac8 27bd 433b f7bc f50d c0bd 630b e03b
00000180: 0ff5 d53d 8b11 57bb 31d5 20bd d99f cbbc
00000190: dc1a edbd bce8 543c 86bb 90bd f40f ae3d
000001a0: af8a 37bc 1430 ee3d ec4e ebbd 7e76 643d
000001b0: faee c4bd 635b 113e ff2e a93d ce69 b73d
000001c0: 2127 aebb 001d a9bd d844 bdbd 0c45 d63d
000001d0: 09a8 743d b63b d1bd af27 7dbd 75b7 0abe
000001e0: 6f5f 26bb 5eba e23d ce83 97bd 28fc 27bd
000001f0: b635 11be 6b08 d03c 241e 76bd aca1 5d3d
00000200: a328 023e d58d b63c e309 183d 38ba ca3d
00000210: bdd1 e3bd 9089 e53d f281 eabd 069f f63d
00000220: a5f4 03be 94f8 dcbd a746 243d 8814 c8bd
00000230: b9be 05bc f7e9 eb3d 9242 03be 984a edbd
00000240: 5c3d 2a3d 68ff 48bc 3382 c6bd 8289 b43d
00000250: 219c 493c 2afd 653d 646c 113d 3ea6 703d
00000260: de28 e2bd 6b5d 40bd 93f7 65bc cf68 583b
00000270: e452 ed3b a7c2 db3d 6813 edbd b47a 66bc
00000280: ccc4 ee3c 8189 e53d 3c75 0dbc 1f5b c5bd
00000290: 0768 6a3d 8e33 8e3d 9ca7 193c f918 d9bd
000002a0: 0a54 bb3d 0288 eebd 826d 763d da35 e43d
000002b0: 559c da3d beb6 883d 740d 593c d685 b33d
000002c0: 5453 b13d 0aff 34bd b571 fc3c 8ae0 cd3d
000002d0: c1ea 8f3d 27ac f03d 1cfa 0a3c 2aad 43bd
000002e0: b849 93bd 1f97 c33d cd7f d5bd 6d09 ba3c
000002f0: 71de dabd e32e a1bc 07cb 523d 8124 123d
00000300: 89de 333d 47e1 cf3d 7b0f 83bc 2a9d 2fbc
00000310: 391d 6f3d 9d2b 15bd ae12 81bd 5392 023e
00000320: 75c4 be3d 875b ce3d fbde b4bd d81e 063e
00000330: 78d8 f8bc cb97 803d 73ba bcbd d8d0 98bc
00000340: 3f60 bf3d 8f12 fcbd 6880 fa3d ae54 b53d
00000350: 746c c0bd 7db0 21bb 3800 05bd 6f88 073d
00000360: de8f d0bd c49c 623d 7550 d8bd 565c acbd
00000370: 04a5 433d 7f59 f33d 359b 003d 8e70 f23c
00000380: 3ce3 de3d 2249 73bc 3f2f c9bc 8b58 92bd
00000390: 6950 a5bd c0ec 29bd 9e1a dcbd 52d4 6a3d
000003a0: 05a0 d53d 575b 74bd 198d bf3d 15df 95bd
000003b0: e7ac c83a 379d c93d 7207 96bd 9aa0 833d
000003c0: fc84 ab3d 73af d4bd 517e 4fbd f60e 923d
000003d0: 03af 4c3c be59 28bd 1516 983d b769 58bd
000003e0: cf4d 0ebd 8207 1cbd 257c 803d 2151 633d
000003f0: d574 fb3c d78a d2bd dbf0 bdbd e04a 433d

linear4.bias f4 [32]
-0.005816589 0.037989967 0.022209655 -0.020533014 0.122708805 0.03058879 -0.0134749245 -0.117131144
-0.041460548 -0.062031914 -0.009892594 0.055119574 -0.04823048 -0.05711469 0.037125558 -0.06966011
-0.096194044 0.059606332 0.043684892 0.100981064 0.003532641 -0.13903293 -0.09285489 -0.10104875
0.0025147859 -0.06527605 -0.044606786 -0.024826245 -0.08255411 -0.016722038 -0.0044316477 0.1296309
00000000: 1699 bebb 5e9b 1b3d 06f1 b53c da34 a8bc
00000010: c14e fb3d 5895 fa3c eec5 5cbc 74e2 efbd
00000020: 89d2 29bd 2d15 7ebd 8c14 22bc 10c5 613d
00000030: 538d 45bd 18f1 69bd f810 183d f6a9 8ebd
00000040: 6201 c5bd c525 743d eeee 323d 29cf ce3d
00000050: e283 673b a65e 0ebe b42a bebd a6f2 cebd
00000060: 1bcf 243b 73af 85bd 9bb5 36bd 6960 cbbc
00000070: 2112 a9bd a8fc 88bc 5b37 91bb f6bd 043e

linear5.weight f4 [1, 32]
0.17072389 0.042372998 -0.055034395 0.17538026 -0.25277162 -0.0017472369 -0.18959053 -0.17113346
0.06801768 0.061500683 0.12081753 -0.17015085 0.14185375 0.07687674 0.20183937 0.044718698
-0.13564211 0.09706535 0.01031772 0.07495796 -0.0018635566 0.0039517116 0.13140158 0.093519494
0.08084801 0.06803865 0.087754175 -0.1602686 0.09515793 -0.13490601 0.08614704 -0.04704545
00000000: 3ed2 2e3e 4f8f 2d3d bf6b 61bd e296 333e
00000010: 486b 81be 8b03 e5ba 0524 42be 9c3d 2fbe
00000020: da4c 8b3d 24e8 7b3d 2e6f f73d 063c 2ebe
00000030: 1c42 113e 8d71 9d3d fbae 4e3e f42a 373d
00000040: c4e5 0abe 33ca c63d a70b 293c 8f83 993d
00000050: 9542 f4ba 5c7d 813b 238e 063e 2687 bf3d
00000060: a493 a53d d957 8b3d 76b8 b33d 741d 24be
00000070: 29e2 c23d cd24 0abe dc6d b03d bbb2 40bd
